Assets/Models/Movement-244891.onnx (onnx, 133736 bytes, 13 tensors)

discrete_act_size_vector f4 [1, 2]
000000 00 00 40 40 00 00 40 40
       3.0 3.0

network_body.observation_encoder.processors.0.normalizer.running_mean f4 [102]
000000 36 a7 de 38 06 a9 4a 3f 1a ba 8b 3d b0 61 0f 3e
       0.000106169304 0.7916416 0.068226054 0.14002109
000010 00 00 00 00 b8 01 9d 3e b6 c7 6f 38 76 0a 39 3f
       0.0 0.30665374 5.7168036e-05 0.7228159
000020 45 3f 96 3d 12 a3 50 3e 91 86 4d 37 da ff 5a 3e
       0.073362865 0.20374706 1.2250283e-05 0.21386662
000030 da f9 35 3a 94 e9 17 3f 28 e0 81 3e 40 e2 1b 3e
       0.0006941833 0.59340787 0.2536633 0.15223026
000040 00 00 00 00 d7 c7 7d 3e 67 04 09 38 ab 45 2c 3f
       0.0 0.24783264 3.2667445e-05 0.67293805
000050 16 2e be 3d 25 a0 6f 3e 5b 04 89 36 69 d6 19 3e
       0.09286134 0.23400934 4.083425e-06 0.15023197
000060 60 b5 35 3b c8 e1 d3 3e ff 71 df 3e 77 6f 16 3e
       0.0027726516 0.41383195 0.4364166 0.14690958
000070 00 00 00 00 6a 22 54 3e 6a 04 09 37 0d 5f 1f 3f
       0.0 0.20716253 8.166864e-06 0.6225441
000080 4b 57 4e 3e c8 11 34 3e 00 00 00 00 45 c4 fd 3d
       0.20150487 0.17584908 0.0 0.12390951
000090 da 09 8f 3b ba bc 88 3e 3e 88 1c 3f 8b b4 ef 3d
       0.004365188 0.26706487 0.6114539 0.11704358
0000a0 00 00 00 00 22 21 32 3e a1 86 4d 37 d8 2d 1a 3f
       0.0 0.17395452 1.2250298e-05 0.602262
0000b0 87 fb 8a 3e 38 3b 01 3e 00 00 00 00 b4 8a ee 3d
       0.27145025 0.12620246 0.0 0.11647549
0000c0 bb f2 40 3b 83 13 82 3e 79 b6 21 3f 8c c7 e3 3d
       0.0029441554 0.2540551 0.63169056 0.11122045
0000d0 00 00 00 00 c7 3b 2c 3e 6c 04 89 37 1e d6 12 3f
       0.0 0.16819678 1.6333732e-05 0.57357967
0000e0 22 37 83 3e d2 22 2e 3e 00 00 00 00 94 94 f6 3d
       0.25628 0.1700547 0.0 0.12040058
0000f0 1c 2c 0f 3b 98 30 71 3e a9 f2 0f 3f c8 b3 4c 3e
       0.002184636 0.23553693 0.56229645 0.19990456
000100 00 00 00 00 96 09 3a 3e 6c 04 89 37 9c 05 0f 3f
       0.0 0.18167719 1.6333732e-05 0.55867934
000110 c2 cf 6c 3e 3b 01 57 3e 00 00 00 00 f3 d3 0d 3e
       0.23126128 0.20996563 0.0 0.13850383
000120 3e aa 83 3a 7b 2d 3b 3e f6 1c df 3e 8d bf c2 3e
       0.0010045243 0.18279068 0.43576783 0.38036767
000130 00 00 00 00 5f c1 6d 3e 85 45 ab 37 f0 c9 07 3f
       0.0 0.23218296 2.0417161e-05 0.5304251
000140 29 ce 89 3e 9a 1d 4d 3e 5b 04 89 36 c9 a1 47 3e
       0.269151 0.20030823 4.083425e-06 0.1949531
000150 69 04 89 39 a4 ef e0 3d cf 50 33 3f de e9 41 3e
       0.00026133962 0.10983208 0.7004518 0.1893687
000160 00 00 00 00 3e 20 81 3e 6a 04 09 38 0f a6 04 3f
       0.0 0.2521991 3.2667456e-05 0.51815885
000170 cb 99 a3 3e 9a 0d 26 3e 00 00 00 00 de a3 a5 3e
       0.31953272 0.16216126 0.0 0.32351583
000180 6c 04 09 38 0f a6 04 3f ca 99 a3 3e 9a 0d 26 3e
       3.2667464e-05 0.51815885 0.3195327 0.16216126
000190 00 00 00 00 de a3 a5 3e
       0.0 0.32351583

network_body.observation_encoder.processors.1.normalizer.running_mean f4 [4]
000000 a1 be 41 40 0b 4b 03 40 0a 2a 93 3f 78 c3 a0 bd
       3.02726 2.0514553 1.1497204 -0.07849783

network_body._body_endoder.seq_layers.0.weight f4 [128, 106]
000000 f6 2a 9e 3d 47 05 8f bd b0 b8 a7 3d f6 fc bd 3d
       0.07723038 -0.069834284 0.08189523 0.09276764
000010 4d fe 73 3d a2 72 04 be b5 f1 7a 3d 04 15 95 bd
       0.059568692 -0.12934354 0.061265666 -0.07279399
000020 ad 61 0f 3e 83 bc 3f 3d 41 ed a3 bd a4 9a 19 bd
       0.14002104 0.04681064 -0.08004237 -0.037500992
000030 b6 ca 69 3e b1 5f 35 3d 44 e7 cd b8 ba 86 d7 3d
       0.22831234 0.04428071 -9.818238e-05 0.10523744
000040 cd 72 08 bd df 91 25 be a1 e6 be 3d 32 77 d0 3d
       -0.033312608 -0.16168927 0.09321333 0.10178985
000050 1f e6 80 3c cc ca db bd 19 52 c6 bd 04 83 36 3d
       0.01573473 -0.1073204 -0.09683628 0.04455854
000060 cc 7a d5 bc 49 95 58 3d 58 33 20 3e 21 63 02 be
       -0.02605953 0.052876744 0.15644586 -0.12733127
000070 a3 43 5d bd 12 72 16 3c c3 aa 0f 3e d9 00 71 ba
       -0.05401958 0.00918247 0.14029984 -0.0009193547
000080 40 75 7b bd 70 81 08 be 3a ab b0 bd 1e ca 92 bd
       -0.061391115 -0.13330626 -0.08626409 -0.07167457
000090 3c cd 1e 3e 85 25 2e bd 8e 2e 94 3d 2d 76 a8 3c
       0.15507978 -0.04251625 0.07235442 0.020564163
0000a0 c7 b8 9b bc 3a e7 16 bd 94 49 75 bd c2 a1 8c bd
       -0.019009007 -0.03684161 -0.059884623 -0.0686679
0000b0 2c ae c5 3d ef c2 1f bd bc 87 49 3c 73 01 26 bd
       0.09652361 -0.039004263 0.012300428 -0.040528726
0000c0 e5 ee 3a 3d e4 b3 1a 3e a6 9f 9c bc 42 f7 dc 3d
       0.045637984 0.15107685 -0.019119095 0.10789348
0000d0 ac 0c a6 3d 49 9e a8 bd e5 77 9c 3b 41 df 85 3d
       0.08107886 -0.082333155 0.0047750347 0.06536723
0000e0 b6 f1 79 3d 2d 23 26 3e 7f 15 80 3d 36 df d2 bd
       0.06102153 0.16224356 0.062541 -0.1029648
0000f0 61 1a dc bd f0 01 98 3d 7f 1f 2c bd 36 45 be 3b
       -0.10747219 0.074222445 -0.042022225 0.0058065904
000100 7c 43 71 bb 27 50 32 3e a2 c4 2e 3e 8f 11 b5 3d
       -0.0036813905 0.17413388 0.17067197 0.0884124
000110 ca d2 e5 3c b2 96 85 bb 48 3f 84 3d 67 0e db 3c
       0.028054614 -0.004076802 0.064573824 0.026740266
000120 ff 3c 26 bc e3 49 6d bd da 2b 5a bd fe 26 8c 3d
       -0.010146379 -0.057931792 -0.053264476 0.06843375
000130 87 fb b7 3c 29 29 14 bd b7 04 b5 3d 51 ec 64 3e
       0.022458805 -0.036172066 0.0883879 0.22355773
000140 04 96 3b be 74 20 bd 3d f9 5b 9b 3d da 66 00 bc
       -0.18318945 0.092347056 0.07585902 -0.007837022
000150 1b b7 c2 bc 81 48 79 bc 7e a9 70 bd d1 2f 75 3e
       -0.023768952 -0.01521504 -0.05875539 0.23944022
000160 77 c6 e2 3d a5 48 e5 3d ed b2 68 3c 1f a6 39 3d
       0.110730104 0.111954965 0.0142028155 0.04532444
000170 40 17 de bc 5d 15 15 bc f3 93 da 3d 7e c8 c5 3c
       -0.027110696 -0.009099332 0.1067275 0.024143454
000180 d8 46 84 3c 00 a5 6b 3d 52 92 63 3c 63 b2 fc 3d
       0.016147062 0.057530403 0.013889866 0.12338712
000190 77 31 79 3c 79 b9 3a be ff ad 10 3d 39 2d 74 3e
       0.015209547 -0.18234815 0.035322186 0.23845376
0001a0 e6 17 65 bd fd 36 2b 3e 84 fc b9 3d 9c 73 c2 3c
       -0.055930994 0.16720195 0.09081367 0.023736767
0001b0 c9 31 81 bd 65 c9 00 3e 7b c5 07 3e 29 7a 70 3e
       -0.06308324 0.12576826 0.13258927 0.234841
0001c0 cd be a2 3b 40 2e 78 3d 1a 5b 44 be 18 62 75 bc
       0.004966593 0.060590982 -0.19175377 -0.014977001
0001d0 65 75 c0 3d 60 1e 9f be 16 15 f8 bd 53 eb ac 3d
       0.09397391 -0.31077862 -0.12113397 0.08443322
0001e0 0c 09 fb bc 39 f0 10 3e 2a e4 a5 bc 20 52 63 3c
       -0.030643962 0.14154138 -0.020250399 0.013874561
0001f0 87 73 c1 3d 8f ea ee bc 62 e1 9c 3c 08 c4 50 bc
       0.09445863 -0.02916458 0.01915044 -0.01274205
000200 f2 31 09 3e 7f ed 25 3d 9d dd 14 bd b5 3d 75 bb
       0.13397959 0.040509697 -0.03634416 -0.0037420813
000210 ae bb 53 3e 5b f6 c0 bd 2d 6f 1b 3e d7 4b 5d bd
       0.20677063 -0.094219886 0.15179129 -0.054027405
000220 a1 45 2a 3d 3a 41 25 bd 74 21 0f 3e 9e d5 27 be
       0.04157031 -0.040345408 0.13977605 -0.16390082
000230 69 76 0f 3d 89 1c 99 3e 76 62 5d bc c7 eb d6 3d
       0.035025034 0.29904583 -0.013512244 0.1049419
000240 65 1c 0c 3d 41 a0 18 3c bd 02 4b bd ad 80 99 3a
       0.034206767 0.009315551 -0.04956316 0.0011711322
000250 47 ae 38 bd be 01 9b bd 92 44 99 bc 6b 54 9c 3d
       -0.04508808 -0.07568692 -0.018709455 0.07633289
000260 44 52 0a bd f1 f7 f5 3c 5f f0 7e bd 7a 1d af 3c
       -0.03376986 0.030025454 -0.062240954 0.02137636
000270 f0 40 d8 3d 4d 26 07 be c9 b6 9d 3c 9e b4 f0 bc
       0.10559261 -0.13198204 0.019252198 -0.029383
000280 fc c3 30 be 1c 3d a2 3d fe fb c2 3b 61 ba 03 3c
       -0.17262262 0.07921812 0.00595045 0.008040042
000290 38 ab 17 3e c1 cf 58 3d e4 11 84 3d 55 bd 85 3d
       0.14811409 0.052932505 0.06448725 0.06530253
0002a0 e9 b3 91 3a 87 09 e9 3c b9 5a e5 bc 80 80 94 3c
       0.001111624 0.028446926 -0.027997361 0.01812768
0002b0 d2 59 7f bc f6 ce 1e 3c 84 dd 01 3e 07 90 8b bc
       -0.01558538 0.009692898 0.12682158 -0.017036451
0002c0 b6 31 81 bd 21 df 17 3d 4d e1 96 bd bf d3 0c 3e
       -0.0630831 0.037078027 -0.073671915 0.1375265
0002d0 ca 56 15 bd ab 7b 37 be 6c 87 56 bd 61 13 0a 3d
       -0.03645972 -0.1791827 -0.052375242 0.033709887
0002e0 ad 74 8d 3d f5 ef 03 3d 59 c6 ec 3d c2 6e 8a bd
       0.0690702 0.032211263 0.11561269 -0.067594066
0002f0 80 8f 92 bc a3 44 9b bc bc bb 20 3b 67 ae b7 3d
       -0.017890692 -0.018953627 0.002452596 0.089688115
000300 bd 41 34 3e dc ec 38 bd 16 b7 d4 3c f8 cc 93 3c
       0.17603202 -0.04514776 0.025966208 0.018042073
000310 3e 5f b5 bc bf 20 a8 3d 46 c5 87 bb 56 2c 3a 3e
       -0.022140142 0.08209371 -0.00414339 0.18180975
000320 0d 95 44 3e f1 b5 29 3e 24 73 57 bc 5e f8 4d 3e
       0.19197483 0.16573311 -0.01315001 0.20114276
000330 31 22 ee 3c 0b e0 8f bc e4 4f 0f be b9 c2 c9 bd
       0.029069038 -0.017562887 -0.1399532 -0.098515935
000340 07 d4 51 3d 0e 21 b4 bd c3 e9 12 be 25 70 7c be
       0.051227596 -0.08795367 -0.14346986 -0.24652155
000350 df 1a ad bd 10 f1 67 bb 1a 2e c6 bd 9c b0 2f bd
       -0.08452391 -0.0035391487 -0.09676762 -0.042893037
000360 ff e2 cd bd 7a 68 9d 3c a5 2a 32 be 0e e2 f9 3d
       -0.10053062 0.019214857 -0.1739908 0.1220132
000370 1d 0e 43 3e 8e ec 0f be b1 22 01 be 11 50 11 bd
       0.19048353 -0.14055082 -0.1261089 -0.035476748
000380 08 87 f5 bd 24 bd c8 3d d1 06 68 3c 9c 65 81 3e
       -0.11988646 0.09801701 0.014161781 0.25272834
000390 b6 a2 80 3c 87 91 99 3d c3 12 0d be e8 6f 89 3d
       0.015702587 0.0749846 -0.13776688 0.067107975
0003a0 cf b8 56 3e ec a6 6d 3c 41 82 ea 3d 6e da 85 3d
       0.20968936 0.014505129 0.11450625 0.06535803
0003b0 b3 f6 20 3e c4 a4 13 3c cd 8c 96 3b 2d 9f b5 3d
       0.15719108 0.009011451 0.0045944215 0.08868251
0003c0 0f 9b 47 3e 24 6e 09 3d 07 57 23 3d 27 2a c6 3d
       0.19492744 0.033552304 0.039877918 0.09676009
0003d0 77 47 8d bd dd 05 05 bd 4c db df bd 58 2d e6 3d
       -0.068983965 -0.032476295 -0.109304994 0.112391174
0003e0 6c 70 4f be 62 34 30 bd b7 8e 5a bd 72 47 bd bd
       -0.2025773 -0.043018706 -0.05335876 -0.09242143
0003f0 ad 90 e1 bc fb 21 aa 3d 4a 1b 82 3d 95 33 df 3d
       -0.027534807 0.083072625 0.06352861 0.1089851

network_body._body_endoder.seq_layers.0.bias f4 [128]
000000 63 6e 57 3c 15 69 3d 3d 64 d8 da bc 0a 90 85 bd
       0.013148877 0.046242792 -0.026714511 -0.06521614
000010 da 58 6e 3c 51 83 4a 3d 73 c9 2e 3d eb 2a 9f 3d
       0.014547551 0.04944164 0.042672586 0.07771858
000020 7d 25 89 3c 71 8f 96 3d 3c ee be bb 62 c0 d4 3c
       0.016741509 0.07351578 -0.0058267396 0.025970642
000030 f7 fe 1b 3d a9 27 a6 3d 38 43 33 3d a1 95 44 3d
       0.03808495 0.08113033 0.043765277 0.04799426
000040 f5 3b 66 bb f2 64 5e 3d 03 1e cc 3c 65 b3 29 3d
       -0.0035130952 0.054295488 0.024916654 0.04143085
000050 21 b8 b9 bb 58 f7 6f 3d db 2a dd 3c 0d e4 2f bd
       -0.005667702 0.058585495 0.026997974 -0.042942096
000060 4d 73 cc 3c 4e cb 81 bd 7a 64 88 3d 46 06 03 3d
       0.024957323 -0.063376054 0.066597894 0.031988405
000070 27 9f 16 3c 7f 5b 78 3b be 63 16 3d fb 21 02 bc
       0.009193218 0.0037896333 0.036716215 -0.007942672
000080 87 90 69 bc df 5e 79 3d a3 cb 90 3d 35 55 12 3d
       -0.014255649 0.06088149 0.070700906 0.03572579
000090 1d 76 12 3d e4 6d 34 bd 4c 3f cb 3b 7b d1 e7 3c
       0.035757173 -0.044050112 0.006202614 0.02829813
0000a0 db 5d 9d 3d 8b 61 fc bb d6 40 92 bb ab 05 94 3d
       0.07683917 -0.0077020577 -0.0044632955 0.072276436
0000b0 18 ee 93 3d 4c 82 80 3d 34 4f 55 3d 42 76 14 3c
       0.07223147 0.06274852 0.052077487 0.009061398
0000c0 79 89 8a bd 20 83 f7 3c a7 af 50 3d 23 9b 5d 3d
       -0.06764502 0.030213892 0.050948765 0.054103028
0000d0 dd c5 6a 3d 90 aa b1 3b b7 5c 63 3d 06 8d f7 3c
       0.057317603 0.005421944 0.05550834 0.030218612
0000e0 94 dd 43 3c 9b c0 d4 3c 18 78 35 3d d1 91 c8 3c
       0.011954684 0.025970748 0.044303983 0.024483593
0000f0 a0 5b a4 3d 21 d1 99 3d d6 01 29 3d c7 3f 82 3c
       0.080252886 0.07510591 0.041261517 0.015899552
000100 31 36 37 3d 59 b1 87 bd 7e e0 2d 3d c1 4f c4 3c
       0.044729415 -0.06625623 0.04245042 0.02396381
000110 23 c5 68 3d 78 20 44 3d 26 a3 94 3c 72 9f 41 3c
       0.05682863 0.047882527 0.018144201 0.0118178
000120 96 de 0c bd 1b 25 22 3d 43 14 97 3d cd ff 82 3d
       -0.034391962 0.039586168 0.073769115 0.063964464
000130 1e a1 1b 3d 0c 79 ab 3d fe cd 94 3c 14 96 e1 bc
       0.03799545 0.08372697 0.018164631 -0.027537383
000140 2f c3 46 3d 28 86 61 3c d7 3c 3c 3d 5b 2d a6 3c
       0.048525985 0.0137648955 0.04595646 0.020285299
000150 27 33 20 3d 4c 8f 6a 3d dd 4f 90 3c 70 3f c6 3c
       0.039111283 0.057265565 0.017616207 0.024200171
000160 3c 4e cc 3c 1a e4 d3 3c 07 66 ee 3b f8 c2 e1 bc
       0.024939649 0.025865603 0.007275346 -0.027558789
000170 e2 d5 5d 3d 68 92 8d 3b 4d a5 3b 3c b4 22 20 3d
       0.054159053 0.0043204315 0.011452985 0.039095595
000180 35 a8 20 3d a0 d2 2f 3d 4f 72 9b 3d 74 c8 cf 3a
       0.039222915 0.042925477 0.07590162 0.0015852586
000190 88 e8 9f 3d 9d 48 5d 3d 74 51 96 3d a9 1d aa 3c
       0.07808024 0.054024328 0.07339755 0.020766096
0001a0 c9 77 1f 3d ed 86 de 3c 06 1b 86 3d 82 d7 a0 3d
       0.038932595 0.027163947 0.06548123 0.07853605
0001b0 e8 b6 4a 3d 28 9f 55 3d 3b dc 77 3d 89 43 dd 3c
       0.04949084 0.052153736 0.060512763 0.027009742
0001c0 3d 80 7f 3d 84 89 14 3b c0 19 18 3d 74 7a db 3d
       0.062378157 0.0022664974 0.037133932 0.107167155
0001d0 8b 5f 25 3d 3e f3 f1 3c 2a 8e 3c 3d 26 4a dd 3c
       0.04037432 0.029534932 0.046034016 0.027012896
0001e0 6d 34 58 3d 0b f2 18 3d 2d 03 86 3d c3 65 80 3d
       0.052784372 0.037340205 0.065435745 0.062694095
0001f0 4a 82 01 3d 2d 8b 95 3d 1b 99 7e 3d 78 77 62 3d
       0.031618394 0.07301936 0.06215773 0.055289716

network_body._body_endoder.seq_layers.2.weight f4 [128, 128]
000000 a5 12 82 bd e0 42 e0 bd d0 82 98 3d 6d f6 73 3d
       -0.063512124 -0.109502554 0.074468255 0.05956118
000010 e5 8e ee 3c 9d 05 1c be d5 4d a0 3d 94 16 dc 3d
       0.029120872 -0.15236516 0.07827345 0.10746494
000020 c0 de 97 3e fb 96 44 3e 22 71 5b bd 76 2a 0a 3e
       0.29662132 0.1919822 -0.05357469 0.1349276
000030 20 79 3b bc c4 ae b2 3d d2 02 06 be d7 2c cf 3d
       -0.011442453 0.0872474 -0.13087013 0.101159744
000040 53 44 85 bd 3b 81 68 3d b1 ff 5d bd 64 8d 98 3d
       -0.065071724 0.05676387 -0.054198924 0.07448843
000050 4d a6 0b 3e f2 2a 8c be 50 4e cc bc 18 be 00 be
       0.13637657 -0.27376515 -0.024939686 -0.12572515
000060 b0 e4 dd bc c2 25 b2 3d f5 43 17 bb 18 9f 39 be
       -0.027086586 0.08698608 -0.0023081277 -0.18127096
000070 9c d5 31 bd 35 2f 26 3c d0 ba cd 3c d9 52 39 bc
       -0.043416604 0.010143091 0.025113493 -0.011311256
000080 fa b4 ab bc 61 39 7d 3d 38 f6 2f be b8 0a 50 be
       -0.02096032 0.0618223 -0.17183769 -0.20316589
000090 76 fe d1 3d 7a 1b bb 3d c8 59 28 3d 3f 66 51 be
       0.10253613 0.091361 0.041101247 -0.2044916
0000a0 d5 a8 9e bd 06 a8 48 3a 12 8d 3d be 25 13 69 be
       -0.07747046 0.0007654432 -0.18510845 -0.2276121
0000b0 63 2a fd 3d cd 70 15 be 6d c8 7d 3c fd fe 43 3b
       0.123616 -0.14593811 0.01548968 0.0029906624
0000c0 dd 9d df bd 43 99 53 3d 78 71 5f bd 92 27 58 3d
       -0.10918782 0.051659834 -0.05455157 0.052772112
0000d0 a3 0e 9e bd 42 c4 fb bc ec 2e 82 3d 02 b2 5b be
       -0.077176355 -0.030733231 0.06356606 -0.21454623
0000e0 48 b1 e9 3c b2 aa b8 bb c6 db 54 3e 7e b7 0d 3e
       0.028526917 -0.005635583 0.20786962 0.13839528
0000f0 74 30 d6 3d f8 91 36 3e 03 2f 64 3d ef 51 14 3c
       0.104584605 0.1782912 0.055708896 0.009052738
000100 00 10 f8 3d 55 1b 40 3d 94 a0 91 bd 86 c2 14 3d
       0.12112427 0.046901066 -0.07110706 0.036318325
000110 28 70 20 3d 68 92 43 3c af 24 45 bd e6 37 a1 ba
       0.03916946 0.011936761 -0.048130687 -0.0012299984
000120 7e b5 70 bc 0e 60 31 3c a9 ff 54 be ea 9a 1d 3d
       -0.014691709 0.010826124 -0.20800652 0.038477816
000130 67 d0 90 be 67 f9 9b bd c8 cd e2 bc 26 7d 86 bd
       -0.28283998 -0.07615929 -0.027686015 -0.06566839
000140 ea fb 16 bc 44 cb a8 38 a7 39 97 be 66 58 6d bc
       -0.009215334 8.0487254e-05 -0.29536173 -0.014486408
000150 12 2a 45 be 83 56 d1 3c 5f 8b e5 bc 84 65 10 3e
       -0.1925433 0.025553947 -0.028020559 0.14101225
000160 a2 3c 90 bd c5 e4 40 bc 1d 8c 3c 3d ce 05 3b bd
       -0.07042815 -0.011773293 0.04603206 -0.045659833
000170 dd 7b 18 3e a8 78 73 3d 0c 16 ad bc f3 8e b1 bd
       0.14891 0.05944124 -0.021128677 -0.086698435
000180 31 d1 58 3d e0 5c 4e be 8b d8 f1 3c e3 f5 1b 3e
       0.052933875 -0.20152617 0.029522201 0.15230517
000190 63 c5 2b 3e 26 51 22 be e9 d4 ac 3d d6 46 06 be
       0.16774516 -0.15851268 0.08439047 -0.1311296
0001a0 69 be 12 bd 66 c9 10 be 27 db 82 3d ef b5 6e 3d
       -0.03582612 -0.14139327 0.06389456 0.058278974
0001b0 54 7f 23 3e 83 1a 78 bc 3c 83 a7 3d 29 69 ae bc
       0.1596654 -0.01514304 0.08179328 -0.021290379
0001c0 a8 2f 1b 3e 98 9c cc 3d 14 31 b2 bc 00 f2 60 3e
       0.15154898 0.099908054 -0.021751918 0.21967316
0001d0 a5 69 1f 3c 83 09 f3 3d d5 0f ac bd f6 cf 35 3e
       0.009729777 0.118670486 -0.08401457 0.17755112
0001e0 e5 4b 49 3c 89 b7 29 3e d1 e6 cc 3d b9 80 72 bd
       0.012286161 0.1657392 0.10004962 -0.05920479
0001f0 f9 36 89 3d ac f4 34 3e 1b 17 64 3d 77 ef 78 be
       0.06699938 0.1767146 0.055686098 -0.24310099
000200 b2 75 e0 3d 4f f5 b1 3d c8 f3 2b 3e 30 af df bc
       0.109599486 0.08689367 0.16792214 -0.027305216
000210 57 2e 9a 3d 03 75 96 bb 2b 88 74 bd 34 c9 25 be
       0.0752837 -0.0045915856 -0.059700172 -0.16190034
000220 14 26 a7 3d f3 a9 9d 3c 05 af 21 3e 4c ce f6 3d
       0.0816156 0.019246077 0.15789421 0.12051067
000230 84 92 32 3e bc 42 a8 bd 7a db 24 bd 2c f6 f4 bd
       0.17438704 -0.082158536 -0.04024837 -0.11961016
000240 3a f7 2f bd 1f 7c 46 bd da e4 49 3c 6c 34 8b bd
       -0.042960383 -0.048458215 0.012322629 -0.06797108
000250 c4 cc 07 3d bb 75 27 be 27 d8 f2 bd 08 b6 b8 bd
       0.033154264 -0.16353504 -0.11857634 -0.09019095
000260 ac 45 40 3e 80 fa fc bc 2c df 69 be 75 b5 21 bd
       0.18776578 -0.030881166 -0.2283904 -0.03947969
000270 d7 a5 13 bd 7e 6e 71 bd 4c b1 ca 3d df 93 d7 bd
       -0.03604683 -0.058943264 0.09897098 -0.10526251
000280 d3 3b 03 3e 0f d3 2b 3e 39 a2 53 3d 0a b7 ea bd
       0.1281579 0.16779731 0.05166838 -0.11460693
000290 ff 6c 10 3e 26 ab 2d 3e 22 94 61 bd c4 63 cd bd
       0.14104079 0.16959819 -0.05507291 -0.100287944
0002a0 dd 99 55 3b 06 23 c1 bd ce d1 47 3e 0f 90 04 bd
       0.003259293 -0.09430508 0.19513628 -0.032363947
0002b0 9f 5c fa bd 33 e5 51 3d af 92 9b be 28 3a 5a 3c
       -0.12224697 0.051243972 -0.30385348 0.01331953
0002c0 e3 29 c7 bd f9 ec 68 3d 4d 9c 56 bd ab 2a ff 3d
       -0.09724786 0.05686662 -0.052395154 0.1245931
0002d0 4f 8c 82 bd 82 79 36 3e c3 1c fd 3d 37 40 1d 3c
       -0.06374418 0.17819789 0.123590015 0.00959783
0002e0 99 19 21 3e 1c fd ac bd 6f 3e 0e bc e8 16 19 3e
       0.15732421 -0.08446714 -0.0086818775 0.14950144
0002f0 64 e8 2f bd e4 17 a2 bd 06 66 60 3c cc 26 e9 3d
       -0.042946234 -0.07914713 0.013696199 0.11384353
000300 10 dd 6e bd a5 26 8c 3d b7 72 3e 3e 6d 2f 61 bd
       -0.05831629 0.06843308 0.18598448 -0.05497687
000310 ee c2 66 3d 76 b0 5e 3d 42 a7 a7 bd 31 5a 58 3d
       0.056338243 0.054367505 -0.08186199 0.05282039
000320 22 c9 5e be 0b b9 9b bb 18 74 0d be dc 71 05 be
       -0.21756414 -0.0047522835 -0.13813818 -0.13031715
000330 ca fe 83 3d a9 23 55 3d cc a3 be 3d e9 30 8e 3a
       0.064450815 0.05203596 0.093085855 0.0010848317
000340 51 9d 92 3d 4b db 3e bb f2 3b d9 bd a2 3b e8 3d
       0.07158912 -0.0029122408 -0.10607137 0.11339499
000350 91 5a f6 3c 69 e0 17 3d f5 0e a0 3c b1 09 ca 3d
       0.030072482 0.03707925 0.019538382 0.0986513
000360 ab 36 0b 3e 77 8d 88 bc 93 c5 b2 3d a8 28 32 3e
       0.13595073 -0.016669018 0.087290905 0.17398322
000370 7a 0f 07 3e a7 dd 22 bd e4 13 da 3b 32 65 6e bd
       0.13189498 -0.039762165 0.006655203 -0.058201976
000380 28 6e 7f 3e b3 a6 de bc e0 a2 60 3d 4f 2e a7 3d
       0.24944365 -0.027179098 0.05484283 0.081631295
000390 15 62 38 bd 4f d9 ab bd ce e9 70 bc f2 e4 4c bd
       -0.045015413 -0.08391058 -0.014704181 -0.050023027
0003a0 e3 e3 00 3e e4 cf 58 bd 6d cb 58 3d be 6d 68 bd
       0.12586932 -0.052932635 0.052928377 -0.056745283
0003b0 18 f2 47 3e c4 f9 11 3d 22 79 85 3b a4 39 cf bd
       0.19525945 0.035638586 0.004073278 -0.10118416
0003c0 89 ae 0d 3e 19 bd e0 bd 9b 17 ba 3d 5f d1 90 bc
       0.13836111 -0.109735675 0.09086534 -0.01767796
0003d0 65 33 92 3d ae 5f 8f 3d 14 ce 39 bd 65 27 3a 3d
       0.07138709 0.07000671 -0.045362547 0.045447726
0003e0 e3 0d 9a 3d 37 5a 36 3e 33 88 f5 3c 7a 76 23 3d
       0.0752218 0.17807852 0.029972171 0.03990791
0003f0 36 ec 05 3e da af 17 3d 45 62 da 3c 10 79 5d bd
       0.13078389 0.03703294 0.026658187 -0.054070532

network_body._body_endoder.seq_layers.2.bias f4 [128]
000000 f8 97 7c 3d 33 08 79 3c 8c 5d 90 3c c1 ce 05 3d
       0.061668366 0.015199709 0.017622732 0.03266788
000010 09 c7 67 3c 88 5e df 3c bc 23 43 3d c0 d3 91 3c
       0.014146575 0.027266756 0.0476415 0.017801166
000020 86 9b a5 39 5d 61 8a 3c 6e 70 5d 3c de aa 8e 3d
       0.00031587126 0.01689213 0.013515575 0.06966184
000030 80 8d 85 bc 11 03 ae 3b cd ac 8b 3d 9f 5b 39 3d
       -0.016302824 0.005310424 0.068200685 0.045253392
000040 20 d8 07 3b cc 33 16 3d 95 24 47 3c 7e 52 d0 3c
       0.0020728186 0.03667049 0.012154718 0.02542996
000050 1c 1f 2b 3d 6e 01 33 3d 8b 67 3d 3d 45 5e 33 3d
       0.041777715 0.043702535 0.046241324 0.043791074
000060 2e f5 0c 3d db 34 1c bc 54 5a c6 3c e1 84 8b bc
       0.03441351 -0.009534086 0.024212994 -0.017031135
000070 ed 06 96 3d 25 6f b4 bc d5 90 85 3c 74 0c 1e 3d
       0.0732554 -0.022025654 0.016304413 0.038586095
000080 f1 8b 47 3d d6 bb 39 3b f3 1c 33 3d 29 97 aa bc
       0.048717443 0.0028340719 0.04372878 -0.020824032
000090 de 6f 9b 3d 29 df f4 3c 84 d4 0f 3d 9b 81 ba 39
       0.07589696 0.029891567 0.03511478 0.00035573248
0000a0 9b 9c 02 bd 4a f1 03 3d 23 7a 98 bc 96 65 11 bc
       -0.031887632 0.032212533 -0.018612927 -0.008874318
0000b0 54 70 31 3d d1 2c 22 3c 52 54 fc 3c a7 b8 c9 3c
       0.043320015 0.00989838 0.030801926 0.024624182
0000c0 4b 43 28 3d 2a ac 34 3d b3 a1 2b 3d 2f 5a b5 bc
       0.0410798 0.0441095 0.041902255 -0.02213773
0000d0 78 e0 3a 3d 78 4e 98 bc d0 2c b0 bb 73 15 12 3d
       0.045624226 -0.018592104 -0.005376436 0.035664987
0000e0 d1 95 05 3d d6 3a b4 3c 72 ce 49 3c bd 69 cb 3c
       0.03261358 0.022000711 0.012317287 0.024830693
0000f0 ce 74 4e 3d 11 23 8a 3b 00 23 02 bd 19 70 11 3d
       0.050404362 0.004215606 -0.03177166 0.035507295
000100 4d 45 2a 3d dd 05 09 3d f7 67 19 3d 66 d9 60 bc
       0.041569997 0.033452857 0.037452664 -0.013723707
000110 33 26 a8 3d a4 03 1d 3d b7 ce c3 3c f9 03 f3 3b
       0.08210411 0.03833355 0.02390228 0.007416245
000120 48 32 06 3d 62 27 21 3d 38 97 40 3d 56 0e 3f 3d
       0.032762796 0.0393442 0.047019213 0.04664453
000130 7f 4a 74 3d 54 b1 f6 3c f8 f3 2a 3d 23 68 d2 3c
       0.059641358 0.030113854 0.041736573 0.025684422
000140 d5 50 2d 3d 06 40 00 3c 6e 59 16 3b 9b fd 1e 3d
       0.042313416 0.007827764 0.0022941488 0.038816076
000150 ad ce 94 bc f3 ac a3 3c 86 6e 75 3d 55 ae a3 3d
       -0.018164957 0.01997993 0.059919856 0.079922356
000160 ec cf 80 3d a4 a6 3e 3c e8 5d 0a 3d 37 f8 4a 3d
       0.06289658 0.01163641 0.033780962 0.049553122
000170 c1 1d 4f 3d 99 b9 a2 3c 52 81 b6 3c 8d 83 31 3d
       0.050565485 0.01986389 0.022278462 0.043338347
000180 32 4e 25 bb 07 fc 1c 3d a1 99 2c 3d f4 89 2f 3c
       -0.002522361 0.03832629 0.0421387 0.010714043
000190 47 20 02 3d ac a5 37 3d 4a 07 e9 3c bc 8f be 3b
       0.031769063 0.04483573 0.028445859 0.0058154743
0001a0 95 b9 f0 3c f0 be 60 3d a1 dc 61 3c d0 ed c0 3c
       0.029385367 0.054869592 0.013785512 0.023550898
0001b0 43 e9 29 3c b5 a1 f3 3c 61 27 bc 3c 61 88 bb 3c
       0.010370555 0.029740194 0.022967996 0.022892179
0001c0 c6 03 43 3d 50 7f c8 bb 70 cc 1e 3d 5d b5 8c 3d
       0.04761102 -0.0061186925 0.038769186 0.0687053
0001d0 70 92 16 3d 44 8c 0b 3d 90 43 6c bc de 6b 86 3d
       0.036760747 0.034069315 -0.014420405 0.06563543
0001e0 42 94 a0 3c d7 97 59 3d c9 8f 71 3d 20 c0 8d bc
       0.019601945 0.05312332 0.058975015 -0.017303526
0001f0 57 b9 2e bc 31 b6 57 3d 65 c6 11 3d 4d cf b1 3d
       -0.010664306 0.052663986 0.035589594 0.086821176

action_model._discrete_distribution.branches.0.weight f4 [3, 128]
000000 30 7d b9 3c fc c2 10 bd 6b 15 06 3e 75 3c 21 bd
       0.022642702 -0.0353422 0.13094108 -0.039364297
000010 48 a3 07 3e 20 50 4a 3c 81 fa 25 3c 2a 1e c5 bc
       0.1324588 0.012348205 0.010130526 -0.024062235
000020 72 f9 8e 3d 0f 41 15 3d 10 e0 86 bd cb 8e ca 3d
       0.06981172 0.036438998 -0.06585705 0.09890517
000030 d8 b8 d9 3d a1 0b 14 bd 7a 03 eb 3b 44 46 4a 3d
       0.10630959 -0.036143903 0.0071720453 0.049383417
000040 29 08 6b bc 03 ac 8e bb 97 f5 60 3c 04 41 15 bd
       -0.014345207 -0.0043540015 0.013730428 -0.036438957
000050 36 e5 d8 3d 6a 38 cd 3d 02 ce 1d 3c e9 23 8c bd
       0.105905935 0.10020526 0.009631636 -0.06842787
000060 11 5a 72 3d 7d 09 ff bc a9 a2 26 bd 1e a2 24 3b
       0.059167925 -0.031132454 -0.04068247 0.0025121043
000070 46 3d 63 3d 35 a1 44 3b 9f 48 6b 3d 96 52 3c bd
       0.055478357 0.0030003313 0.057442304 -0.045977198
000080 d8 67 ce bd 25 89 1e bc 77 5b 12 bd 71 f5 90 bd
       -0.100784004 -0.0096762525 -0.03573176 -0.07078064
000090 c1 de 67 3c 9b 9e 51 3c 9b 2b 52 3a d7 70 bc 3c
       0.01415223 0.012794162 0.0008017362 0.023003025
0000a0 76 0e dd bc 75 8a 4a bc ee f3 80 3d 04 ce 45 bd
       -0.026984435 -0.012362112 0.06296526 -0.048292175
0000b0 d6 55 47 bd bb a1 e6 3c cb 5b 8c bc 9d b2 99 bd
       -0.048665844 0.028153291 -0.017133614 -0.07504771
0000c0 cc c5 5e 3d 3d 13 03 3d 98 29 04 bd 1c 7c fd bc
       0.054387853 0.03200077 -0.03226623 -0.030942969
0000d0 ca 47 7a 3d 78 6c 0c 3d ff f9 87 3c 12 97 37 bd
       0.06110362 0.03428313 0.0165987 -0.044821806
0000e0 b9 6f 7b 3d 69 bd ec bc 2e da cf 3c 2d af 03 bd
       0.061385844 -0.028898912 0.02537259 -0.032149483
0000f0 43 8b 6c bd 4d 01 9a 3d 02 df 44 3d 44 63 5b bd
       -0.057749998 0.07519779 0.04806424 -0.053561464
000100 37 cf b6 bc 01 65 80 bd b9 36 a7 3c 60 97 26 bd
       -0.022315605 -0.06269265 0.020411836 -0.040671706
000110 67 28 30 3d c9 d7 9b bd 53 37 91 3d bd 0b bb 3c
       0.04300728 -0.07609517 0.070906304 0.022832746
000120 ec ca 40 3c ea 34 89 bd 6f 3c 07 3d 78 13 0d be
       0.01176713 -0.06699546 0.03301662 -0.13776958
000130 c2 e4 a4 bd 8f 08 bc 3d 0f 53 93 bd 06 1f 16 bd
       -0.080514446 0.0918132 -0.071935765 -0.03665068
000140 b7 67 84 bd 7c 1a 36 bd 63 a5 e6 3d ef 53 4b 3d
       -0.064650945 -0.04445885 0.11262014 0.049640592
000150 47 ee 0f 3d b3 be 3e bb 66 59 bd bc 46 b3 38 bc
       0.03513935 -0.0029105365 -0.023113918 -0.011273211
000160 f7 17 53 3d 6d 3b 39 bd 73 19 df 3d 06 26 3e bc
       0.051536527 -0.04522269 0.10893526 -0.011605745
000170 6c a9 64 3c 2c 06 a9 3a 34 f9 c7 bc 12 bb d5 bc
       0.013956409 0.0012895516 -0.024410821 -0.026090179
000180 58 8c 01 bd 48 72 66 3d 0d 5a 10 bd 0c 93 28 3d
       -0.031627983 0.05626133 -0.03524213 0.04115586
000190 50 00 5f bd 8c 98 95 3d 5a 0e 74 bd ba e9 e2 3c
       -0.054443657 0.07304487 -0.059584 0.02769934
0001a0 99 6b ba bd 08 52 17 3d 38 4e 08 3d f0 87 29 bd
       -0.09102554 0.036943465 0.03327772 -0.041389406
0001b0 a0 18 df bd 79 c8 97 3d d8 1c 41 bd 62 30 ad b9
       -0.10893369 0.07411284 -0.04714665 -0.0003303318
0001c0 aa c2 a5 bd 21 1a dc bc b6 3d 07 bd 9c b0 60 bb
       -0.0809377 -0.026867928 -0.033017837 -0.0034284955
0001d0 42 5d aa bd f0 37 a9 bd 99 a0 45 3d 5a 71 37 bd
       -0.08318569 -0.08262622 0.04824886 -0.044785835
0001e0 9d f8 6e ba 6f 14 a9 bd 2d 79 6b bd 66 2a 26 3d
       -0.0009116026 -0.082558505 -0.05748861 0.040567778
0001f0 63 d9 88 3d 94 a3 ec bc 7f 01 f8 bb f8 56 3b bc
       0.06682088 -0.028886594 -0.0075685377 -0.011434309
000200 4b 6d 0b 3d 17 84 81 3b 88 92 04 bd 1d d1 84 bb
       0.034039777 0.003952514 -0.032366306 -0.0040532486
000210 78 b1 93 bd 25 2e b9 3c 21 d4 83 bc 60 62 36 bd
       -0.07211584 0.022605011 -0.016092362 -0.04452741
000220 0a a7 07 bd e4 24 97 bc ad 14 66 bc 35 eb 7a 3c
       -0.033118285 -0.018450208 -0.014043015 0.015314867
000230 8c 85 58 bd 15 0a 67 3c 6e 44 d4 3c 70 a5 4e bb
       -0.052861735 0.014101525 0.025911536 -0.0031531714
000240 6f 52 c5 bb 9a cf 58 3c 6f a0 51 bd 06 d4 fe 3b
       -0.0060217897 0.01323309 -0.051178392 0.00777674
000250 9d bd 8b bc d9 d6 34 bc 4f 82 4f 3d 5a f5 06 bc
       -0.017058188 -0.011037552 0.05066138 -0.008237207
000260 e7 54 49 bd cf 7e 0a bd d4 f2 a4 bc 4d 98 70 bd
       -0.049153235 -0.03381234 -0.02013532 -0.058738995
000270 02 63 51 3c 7d f1 db bb d0 2d b0 3b fd d1 7d bb
       0.012779953 -0.0067121373 0.005376555 -0.00387299
000280 23 60 c6 bc 38 d3 82 bc d7 a0 15 3d fd e7 79 ba
       -0.024215763 -0.015969858 0.036530342 -0.0009533165
000290 1c 03 8a 3d ca 1e 7d 3c 8e 11 b8 3c 33 58 9d bd
       0.06738874 0.015449235 0.022469308 -0.07682838
0002a0 3f 74 aa bc 01 e5 89 3c f2 fe bf bc 1e ef 82 bc
       -0.020807384 0.01683283 -0.023436997 -0.01598316
0002b0 a5 c2 8f 3c 62 3f 41 bd 4e f9 b9 bc b7 30 78 bc
       0.017548868 -0.047179587 -0.022701886 -0.015148333
0002c0 7b 2f 15 3d b4 fc 33 b6 bb f6 04 bd 2e fc c9 bc
       0.036422234 -2.682017e-06 -0.032461863 -0.024656381
0002d0 47 6a a7 3b d8 ab 97 bd ac f2 4a 3b bd 79 b2 3d
       0.005109105 -0.074058235 0.0030967398 0.08714626
0002e0 4c 81 7c 3c 42 b0 94 3c 28 30 37 bc 47 a3 41 3d
       0.015411686 0.018150453 -0.011180915 0.047274854
0002f0 f9 b8 61 3d f6 b5 97 bc 70 da 77 bd 8a 4e da 3c
       0.055108044 -0.018519383 -0.060511053 0.026648778
000300 63 ee e3 3c 1b ed 40 3d dd f5 bd 3c 7d 1e 3b bd
       0.027823633 0.04710112 0.023188526 -0.045683373
000310 30 04 67 3d 23 45 90 bc d6 a8 d4 3a 11 77 27 3c
       0.056400478 -0.017611092 0.0016224633 0.010221259
000320 0b 4c 80 3b 00 ae 3b 3c 1c 82 45 3d fc ea c4 3c
       0.003915315 0.011455059 0.048219785 0.02403783
000330 f7 4d 48 3d a7 3a ca bc ac 5d 23 3d 1c cf b7 bc
       0.048902478 -0.02468617 0.039884254 -0.022437625
000340 06 07 6c 3d e0 b5 1b bd 47 95 f3 bc e7 e0 04 bc
       0.057623886 -0.038015246 -0.029734267 -0.0081102615
000350 f8 7f b9 bc 4b 4c c9 3c f7 2f 2e 3d de 49 02 3d
       -0.022644028 0.024572512 0.04252621 0.031808726
000360 17 2f 9d 3c a9 a7 77 3c 02 78 5e bd 18 17 60 3c
       0.019187493 0.015115657 -0.054313667 0.013677381
000370 83 a8 e6 3c 2b 57 c7 3c d2 8a 30 3b c1 51 ed bc
       0.028156525 0.024333557 0.0026938212 -0.028969647
000380 cc 7d 5b bd c9 91 cd bc 90 38 8c 3c e8 9e 6a 3b
       -0.053586766 -0.02509393 0.017116815 0.0035800282
000390 5f 88 29 3d 7f 7b b6 bc 20 64 59 bd 75 05 1b bd
       0.04138982 -0.022275684 -0.053074002 -0.037847
0003a0 ba 0b 01 3c f0 4e 02 bd a0 13 8f bd 33 db 09 bd
       0.007876331 -0.031813562 -0.06986165 -0.03365631
0003b0 0f 5d f0 bc 71 ed a2 3c d9 aa 33 bd 28 ff 4a 3c
       -0.029341249 0.019888612 -0.043864105 0.012389936
0003c0 54 8a 81 bd b6 80 e3 bb 6a 9d bb 3c 8b 6f 4c 3c
       -0.06325212 -0.006942834 0.02290221 0.012477766
0003d0 64 b1 1a 3d d3 88 c2 3c c3 7d fb bc cf a7 70 3d
       0.03776683 0.023746883 -0.030699616 0.058753785
0003e0 05 43 35 3d d3 fa 50 3d 6b 2d 82 3d 03 34 fb bc
       0.044253368 0.051020455 0.06356319 -0.03066445
0003f0 4f 7d a4 bd a8 77 e3 3c b8 4b 83 3d 04 0f 9c 3d
       -0.08031713 0.027767017 0.064109266 0.076200515

action_model._discrete_distribution.branches.0.bias f4 [3]
000000 ae a2 e9 bc c1 1e 27 3d 8b d8 90 bc
       -0.028519955 0.040800814 -0.01768138

action_model._discrete_distribution.branches.1.weight f4 [3, 128]
000000 cb 0d 18 3e 6c 3c 83 3d da 88 3a b8 58 1a 92 3d
       0.14849012 0.06408009 -4.447331e-05 0.07133931
000010 0b be 88 3c 83 2e b7 3d 8c 44 00 3e 4b f2 19 bd
       0.016692182 0.08944418 0.12526149 -0.037584584
000020 5e 4d a1 bd 04 66 29 3d 49 fc 4c 3c b6 a5 70 bd
       -0.07876085 0.041357055 0.012511321 -0.058751784
000030 5c bd f6 3c 9b 56 25 3d 76 76 b3 bd ab 30 c3 bc
       0.03011959 0.040365797 -0.08762829 -0.023826918
000040 42 8e 86 bd b7 a2 f9 bd 22 ff 57 3d 48 11 0e bb
       -0.06570102 -0.121892385 0.052733548 -0.002167778
000050 a4 d9 cf bc 80 75 c6 bc 98 09 8c 3d fb af 7e bd
       -0.025372334 -0.02422595 0.06837767 -0.062179547
000060 26 09 af bd d6 dd 97 bc ad 66 60 3d e1 82 8a bd
       -0.08546667 -0.018538397 0.05478542 -0.067632444
000070 26 b1 c8 bd 6a 46 c6 3c a8 d5 5a bd f5 67 3a bd
       -0.097994134 0.024203498 -0.053426415 -0.045509297
000080 86 e8 d6 bd dc 22 2a bd 0c 50 c0 bd 91 5c d5 bc
       -0.10493569 -0.04153715 -0.09390268 -0.026045116
000090 4d f1 51 bd b1 ea aa bd 73 18 b1 3d 40 5e d2 ba
       -0.051255513 -0.08345545 0.086472414 -0.0016049817
0000a0 2f 49 39 3d da 37 a3 bd 46 7f 00 3d 5a 82 30 bd
       0.04523581 -0.07969637 0.031371377 -0.043093063
0000b0 d2 36 05 3d 33 fd b9 bd ec b3 3e bc 47 86 89 bd
       0.032522984 -0.09081497 -0.011639576 -0.067150645
0000c0 1f 1d 48 3d ae 8a a9 bc 3b 6d bd 3d d3 1f 7b bd
       0.048855897 -0.02069601 0.0924935 -0.061309647
0000d0 dc ce 89 b9 df ca 03 3d 75 66 a0 3c f3 60 3d bd
       -0.00026284799 0.032175895 0.019580105 -0.046235036
0000e0 10 1b 40 3d 34 c2 6a bd 0b 75 42 bd ec 30 1b 3c
       0.04690081 -0.057314113 -0.047474902 0.009472113
0000f0 5c bb 6e bd 0b 59 ac bd 3d 13 0c 3d 50 bb 80 3d
       -0.05828415 -0.08415421 0.034198035 0.06285727
000100 9d 78 03 3c 2d 8a be bc 81 59 7f bd 76 1c 28 3d
       0.008024362 -0.023259247 -0.062341217 0.041042767
000110 21 87 f4 3c 09 1a 8a bc f6 ac 64 3d 29 d4 00 3d
       0.02984959 -0.016858118 0.05582901 0.03145233
000120 ee 67 cc bd c0 27 bb bd 60 20 13 bd 40 b2 81 bc
       -0.099807605 -0.09138441 -0.035919547 -0.015832067
000130 2b e5 e1 3d b7 a3 74 bc c7 b6 ea bc 5f 70 6b 3d
       0.110300384 -0.014931611 -0.028651608 0.057480212
000140 18 10 39 bc ee c9 cb 3c 3a 51 ac bc d8 95 a6 3d
       -0.011295341 0.024876561 -0.021034826 0.08134049
000150 19 47 b8 bc 23 ff 94 3b c3 be 98 bd 1e 05 d0 bd
       -0.02249484 0.004547016 -0.0745826 -0.10157226
000160 3b 36 7a bd 39 58 2b bc e9 04 bb 3b 17 97 ed bd
       -0.061086874 -0.010458046 0.0057073724 -0.11601084
000170 2e a1 80 bd 57 e9 46 3d 52 73 91 bc 23 e3 99 3b
       -0.062807426 0.048562374 -0.017755184 0.0046962663
000180 dc 77 2c 3c 0f f1 9c 3d e1 01 c0 bd 5a 93 aa 3c
       0.010526624 0.07663166 -0.093753584 0.020822216
000190 23 a8 9d 3b 87 75 ba bd ab 6b 28 bd 47 45 f7 bd
       0.004811303 -0.09104448 -0.041118305 -0.120737605
0001a0 c3 a3 fa bb f1 89 c0 3d 6b 3a 27 3b 00 b0 e1 bc
       -0.0076489164 0.0940131 0.0025516998 -0.027549744
0001b0 10 f4 10 bd e1 56 82 3c 86 dc 7f 3d 91 f1 81 bd
       -0.035389006 0.015910568 0.062466167 -0.06344903
0001c0 3e 9d 64 39 28 f7 79 bc f6 9a d9 3c 26 b2 e8 bd
       0.00021802352 -0.015256681 0.026563149 -0.11362104
0001d0 af e6 6e bc e8 9f 8c bc 20 02 93 3d 6f 96 84 bd
       -0.014581366 -0.017166093 0.0717814 -0.064740054
0001e0 17 eb ba 3d 59 f5 db b9 d5 30 c3 3d e1 32 80 bd
       0.09126871 -0.00041953733 0.09530798 -0.062597044
0001f0 b2 6b e9 bc 04 9a 8f bd 1e e3 a4 3d 8f 45 bc 3d
       -0.028493736 -0.07011798 0.08051132 0.09192955
000200 be 61 6b bd 25 30 9c bc 15 7b 13 3c fd a6 91 3c
       -0.05746626 -0.019065926 0.009001513 0.017779822
000210 9f a5 d7 bc af af a8 bc 41 41 8e bd 39 36 57 3c
       -0.026324091 -0.020591585 -0.0694604 0.013135486
000220 d8 37 09 bd c5 1b 33 3c 1f 1e ef bc 86 87 d8 3c
       -0.033500522 0.010931914 -0.029189168 0.02643181
000230 d6 41 f0 bc b9 47 b7 bb c0 6b 2b 3d 58 86 18 bd
       -0.029328268 -0.005593267 0.041850805 -0.037237495
000240 66 d2 e1 3b 99 c8 8c bc 5c 89 28 bc ee 8a 2e 3d
       0.0068915365 -0.017185496 -0.010286655 0.042612962
000250 42 f2 fc bc c7 4f 86 bc 02 79 5d 3c 69 55 a9 3b
       -0.030877236 -0.016395463 0.01351762 0.0051676524
000260 b6 7c 16 3d b4 6b 27 bc 29 82 56 bc 92 b5 84 bc
       0.036740027 -0.0102185495 -0.013092556 -0.01619986
000270 ec 04 93 bc b0 22 a4 3c e1 02 25 bc b8 d3 f2 3c
       -0.017946683 0.020036072 -0.010071487 0.029641971
000280 a2 4c b8 3c 31 f0 0e bd 81 29 1f bd 2d db b7 bb
       0.022497479 -0.034897033 -0.03885794 -0.0056108446
000290 0b fa be 3c 2c 54 54 38 1f bc c8 bc 45 75 4d 3b
       0.02331259 5.062313e-05 -0.024503766 0.0031350416
0002a0 44 3b 26 bd a9 64 35 bc e6 fa 28 bc e0 f0 c9 bb
       -0.040583864 -0.0110713625 -0.010313725 -0.0061627477
0002b0 b4 fa d3 3c 23 42 77 bd 30 5d 46 3d 21 85 98 bc
       0.02587638 -0.060365807 0.048428714 -0.018618168
0002c0 4b c6 ca bc fa 4b 86 3d a9 73 77 bc af 21 6d bc
       -0.024752757 0.0655746 -0.015103259 -0.014473363
0002d0 30 31 9a 3c 48 26 d5 bc de 49 46 3c 27 d8 ef 3c
       0.018822283 -0.02601923 0.012102572 0.029277874
0002e0 5a 9c 58 bb 9c 5b a0 3a 37 51 40 3d ce 6a df bc
       -0.0033052177 0.0012234333 0.046952453 -0.027272608
0002f0 9d 03 ab 3c e9 a1 be bc 92 3f 45 bc 7d 75 b4 bc
       0.020875746 -0.023270564 -0.012039082 -0.022028679
000300 f0 cd 3b 3d 72 1d 45 3a 77 44 b8 bb 4e 0c 85 bc
       0.045850694 0.00075193413 -0.005623396 -0.016241219
000310 dd 1d 63 3c 23 ed 66 3c b6 ce 98 bc c8 0b 53 bd
       0.0138621 0.014094624 -0.018653255 -0.051524907
000320 3b ac 18 bc 16 cd b6 3c b2 92 43 3d e3 a3 1e 3c
       -0.009318407 0.02231459 0.04774732 0.009682628
000330 9a a3 a5 bc 97 cd f2 39 b2 9e c1 bb ff c9 c6 3c
       -0.020219613 0.00046311013 -0.0059088105 0.024266241
000340 cd 8b 58 3b 01 f8 cb ba 75 3e fb bc bb 01 04 3d
       0.0033042312 -0.0015561582 -0.03066943 0.032228213
000350 61 de 63 bd 83 76 1e bd 6a 0e 1a 3d d8 37 ca bb
       -0.055632 -0.03868724 0.037611403 -0.006171208
000360 3d 0a 08 3d 13 60 29 bc 74 3d 7e bb 79 0b 09 3c
       0.03321289 -0.010337847 -0.0038793953 0.008364552
000370 3a 58 93 bc ac 01 4c bd 59 67 53 3c 30 f1 1e 3d
       -0.017986406 -0.049806282 0.012903058 0.038804233
000380 f5 e8 25 3c 8e 9b 84 bb 2d e4 1c 3c 7f 79 c8 bc
       0.010126342 -0.004046864 0.009575886 -0.024471996
000390 5c ab 14 bc ba 40 7e 39 28 93 45 3d 11 61 4c 3d
       -0.009074058 0.0002424744 0.048236042 0.049897257
0003a0 d1 f0 a9 bb f8 3b a4 3c 0b 2f 98 3c 53 d7 08 bb
       -0.0051861783 0.020048127 0.01857712 -0.0020880296
0003b0 2c 82 ed 3c 7d f6 b1 bb d8 2b 98 bb 89 1e f5 3b
       0.028992735 -0.005430995 -0.0046438985 0.0074804467
0003c0 50 13 5c 3c c7 1e 90 3b 34 92 1c 3d 88 48 99 3b
       0.013432339 0.0043982 0.038225368 0.004677836
0003d0 56 5d ec 3c 21 ce cb bc df 87 4a bc 12 57 36 3d
       0.0288531 -0.024878563 -0.012361496 0.04451663
0003e0 07 d0 23 bd 52 93 79 3c a3 29 99 bc 30 c9 b3 ba
       -0.039993312 0.015232878 -0.018696612 -0.0013716575
0003f0 93 03 f7 3c 5d 34 29 3d 43 8f 80 bc 5c 09 1e 3b
       0.030153072 0.041309703 -0.015693313 0.0024114465

action_model._discrete_distribution.branches.1.bias f4 [3]
000000 c5 f3 9b bc 99 27 ee 3c e8 81 32 bc
       -0.019037137 0.029071616 -0.01089523

onnx::Div_78 f4 [102]
000000 67 06 2c 3c 60 f1 cf 3e af 18 81 3e ef ab b1 3e
       0.010499573 0.40613842 0.25214145 0.34701487
000010 91 6e 04 3b b3 20 40 3e 1a 39 00 3c 80 2d e5 3e
       0.0020207504 0.18762474 0.007826114 0.44761276
000020 9a 7f 85 3e 39 3a ce 3e 2a 6e 84 3b 58 59 02 3e
       0.26073915 0.40278795 0.004041453 0.12729394
000030 8c 65 d8 3c ba 7e fb 3e f6 c6 de 3e 92 ef b7 3e
       0.026415609 0.49120122 0.4351117 0.35924965
000040 91 6e 04 3b 32 52 10 3e 14 a5 c6 3b c5 33 f0 3e
       0.0020207504 0.14093855 0.0060621593 0.46914497
000050 ff 9a 94 3e ac c5 d8 3e 22 49 3b 3b 3e ed cb 3d
       0.29024503 0.42338312 0.0028577526 0.0995736
000060 dc 89 57 3d 08 2c fc 3e 8a ec fd 3e 54 42 b5 3e
       0.052621707 0.49252343 0.49594527 0.35402167
000070 91 6e 04 3b dc 57 04 3e cd 60 65 3b cd 31 f8 3e
       0.0020207504 0.1292414 0.0035000325 0.48475495
000080 df 60 cd 3e b8 ea c2 3e 91 6e 04 3b ce 5b 95 3d
       0.4011297 0.380697 0.0020207504 0.07292901
000090 05 14 87 3d 50 86 e2 3e 8e 8f f9 3e ca 98 a4 3e
       0.06595615 0.44243097 0.48742336 0.3214782
0000a0 91 6e 04 3b 05 c6 e0 3d 67 6e 84 3b 2f 97 fa 3e
       0.0020207504 0.10975269 0.0040414813 0.4894347
0000b0 64 b1 e3 3e e3 06 aa 3e 91 6e 04 3b 12 ae 7c 3d
       0.44471276 0.3320838 0.0020207504 0.061689444
0000c0 72 13 5e 3d 05 e4 de 3e 95 f6 f6 3e 92 fa a0 3e
       0.054217763 0.4353334 0.48235002 0.3144117
0000d0 91 6e 04 3b 50 3e cb 3d f6 0f 94 3b fb 36 fd 3e
       0.0020207504 0.099239945 0.0045185043 0.4945601
0000e0 c7 87 df 3e f0 59 c0 3e 91 6e 04 3b 1d db 86 3d
       0.43658277 0.37568617 0.0020207504 0.06584761
0000f0 d2 6a 3f 3d e2 42 d9 3e df 01 fe 3e 10 c4 cc 3e
       0.04673273 0.4243384 0.49610803 0.39993334
000100 91 6e 04 3b a9 29 ed 3d f6 0f 94 3b b1 3b fe 3e
       0.0020207504 0.11580212 0.0045185043 0.49654916
000110 a8 e1 d7 3e 34 88 d0 3e 91 6e 04 3b 8b 02 93 3d
       0.4216435 0.40728915 0.0020207504 0.071782194
000120 9a 04 02 3d 5e e3 c5 3e 72 e1 fd 3e 07 91 f8 3e
       0.03174267 0.3865003 0.49586064 0.48548147
000130 91 6e 04 3b 50 1f 20 3e a0 31 a2 3b 22 87 ff 3e
       0.0020207504 0.15636945 0.0049497634 0.49907786
000140 82 15 e3 3e d1 eb cc 3e 22 49 3b 3b 9c 77 d0 3d
       0.44352347 0.40023664 0.0028577526 0.10179064
000150 ff 71 85 3c 84 18 a0 3e 6e 87 ea 3e ed 9a c8 3e
       0.01628971 0.31268704 0.4580645 0.391807
000160 91 6e 04 3b 97 c8 19 3e 16 a5 c6 3b 4c d5 ff 3e
       0.0020207504 0.15017925 0.0060621602 0.4996742
000170 d3 be ee 3e b4 b9 bc 3e 91 6e 04 3b e2 b5 53 3e
       0.46629962 0.3686043 0.0020207504 0.20674852
000180 16 a5 c6 3b 4c d5 ff 3e d2 be ee 3e b5 b9 bc 3e
       0.0060621602 0.4996742 0.4662996 0.36860433
000190 91 6e 04 3b e2 b5 53 3e
       0.0020207504 0.20674852

onnx::Div_81 f4 [4]
000000 43 4e bf 40 84 7e 68 40 24 f3 73 40 8e 66 92 40
       5.9783034 3.632722 3.8117151 4.575019
