Assets/Models/Movement-499914.onnx (onnx, 916930 bytes, 17 tensors)

discrete_act_size_vector f4 [1, 2]
3.0 3.0
00000000: 0000 4040 0000 4040

network_body.observation_encoder.processors.0.normalizer.running_mean f4 [102]
8.001371e-06 0.7129619 0.020195462 0.26681453 1.8002991e-05 0.17430179 6.0010216e-06 0.5100132
0.11217708 0.37777182 3.0005041e-05 0.14909485 1.600273e-05 0.6922604 0.057501726 0.2502005
2.0003363e-05 0.17391726 2.0003422e-06 0.26130462 0.19128847 0.54709727 3.6005982e-05 0.13423891
0.00013402272 0.6974884 0.11812822 0.1841574 2.6004507e-05 0.19516115 0.0 0.15061538
0.38201898 0.46724805 5.0008683e-05 0.12442494 0.00013802348 0.6557716 0.28920737 0.054767385
4.6007965e-05 0.19431289 0.0 0.11929226 0.51984257 0.36082557 0.0 0.1224879
5.2008905e-05 0.57022613 0.40936592 0.020291472 0.0 0.16814102 0.0 0.094183855
0.5051139 0.40064552 1.4002376e-05 0.122448295 4.2007163e-05 0.5220791 0.41269025 0.06512509
1.4002376e-05 0.16461049 0.0 0.070659965 0.54505634 0.38421133 4.0006794e-06 0.13411249
1.800305e-05 0.43507555 0.4493904 0.11545568 4.0006807e-06 0.17163758 4.0006807e-06 0.051786788
0.6539676 0.29417652 6.0010307e-06 0.16146311 1.2002063e-05 0.1969449 0.64839065 0.15457262
2.000339e-06 0.18126656 8.001383e-06 0.042857252 0.7772186 0.17984091 2.000339e-06 0.18795413
8.001383e-06 0.042857252 0.7772186 0.17984091 2.000339e-06 0.18795413
00000000: a03d 0637 ac84 363f f470 a53c ea9b 883e
00000010: 2105 9737 2b7c 323e 625c c936 3a90 023f
00000020: 19bd e53d 4f6b c13e 56b3 fb37 52ac 183e
00000030: 9a3d 8637 fa37 313f ee86 6b3d 481a 803e
00000040: e5cc a737 5e17 323e 9e3d 0636 b8c9 853e
00000050: 20e1 433e 910e 0c3f 2105 1738 ed75 093e
00000060: 7388 0c39 9a8e 323f 35ed f13d c293 3c3e
00000070: 4124 da37 53d8 473e 0000 0000 eb3a 1a3e
00000080: fe97 c33e 233b ef3e 6ac0 5138 81d2 fe3d
00000090: 65ba 1039 a6e0 273f fd12 943e c453 603d
000000a0: adf8 4038 f5f9 463e 0000 0000 804f f43d
000000b0: 6714 053f 21be b83e 0000 0000 f0da fa3d
000000c0: 2324 5a38 57fa 113f 6998 d13e 4d3a a63c
000000d0: 0000 0000 292d 2c3e 0000 0000 77e3 c03d
000000e0: 254f 013f 6921 cd3e bfeb 6a37 2cc6 fa3d
000000f0: d930 3038 faa6 053f 234c d33e 4e60 853d
00000100: bfeb 6a37 a78f 283e 0000 0000 2cb6 903d
00000110: d088 0b3f 59b7 c43e 933d 8636 c954 093e
00000120: 4105 9737 39c2 de3e 8016 e63e 0774 ec3d
00000130: 963d 8636 c3c1 2f3e 963d 8636 621e 543d
00000140: 6c6a 273f 4e9e 963e 765c c936 9656 253e
00000150: 785c 4937 edab 493e eefc 253f 4948 1e3e
00000160: 903d 0636 f19d 393e ae3d 0637 168b 2f3d
00000170: ccf7 463f 3728 383e 903d 0636 0c77 403e
00000180: ae3d 0637 168b 2f3d ccf7 463f 3728 383e
00000190: 903d 0636 0c77 403e

network_body.observation_encoder.processors.1.normalizer.running_mean f4 [4]
-2.844911 4.6222014 2.043438 0.51390624
00000000: 0613 36c0 13e9 9340 b0c7 0240 5c8f 033f

network_body._body_endoder.seq_layers.0.weight f4 [256, 106]
0.10405863 0.17186534 0.09787906 -0.06779854 0.031238971 -0.07459261 -0.105002694 0.1423226
0.017992107 0.08263597 -0.013902418 -0.13379042 -0.10529693 0.099122435 0.017740529 0.10443029
0.22032686 -0.1629758 0.21199559 0.09440889 0.08234837 0.06787136 0.11688182 -0.17294793
-0.020643443 -0.0128618805 -0.039277412 0.091423996 -0.022646526 0.01753405 0.11025695 0.10784139
0.21611984 -0.004511021 0.07853617 0.008877748 0.03620208 -0.13283774 0.15602405 -0.20628059
0.24481906 0.017247153 0.04394317 0.08223369 -0.13893612 0.09753593 -0.0067560175 -0.18587078
-0.05700457 -0.015681019 -0.070527755 0.038265556 -0.11019823 0.04110978 0.11288517 0.12863997
0.023044497 0.013637734 0.016475348 -0.22423321 -0.03820903 -0.057041302 -0.23577115 0.11711458
-0.09089908 0.1013049 0.13509311 0.030236691 0.20034684 0.08486554 0.085061274 -0.12850206
0.036124993 -0.029140316 -0.27157983 -0.028150167 -0.0032854218 0.15349284 0.066352375 0.1521776
-0.051468693 0.087776735 0.17831334 -0.0060018627 0.042537786 0.1339574 0.088684276 0.033869818
0.052492864 0.09098479 0.060812157 -0.05516494 0.056961663 0.0002943156 0.0686033 0.060165633
0.14943671 -0.09491143 -0.10662604 0.021896606 0.019043315 0.17547889 -0.10904194 0.09743689
-0.075493276 0.3493714 0.020055551 -0.12292449 0.15243882 -0.062768094 0.22283147 0.1994215
-0.1319048 0.19912478 0.113800324 -0.07818278 -0.09299822 0.0395362 -0.106886245 -0.06692373
0.03578479 0.106877685 0.32956415 0.06076025 -0.06795027 0.031963065 0.08659014 0.15501446
0.24213237 0.08572116 0.016295107 -0.13238306 0.09863279 -0.028656425 0.2891009 0.045801986
0.0037056073 -0.16616791 -0.08812302 -0.2829225 0.5004239 0.267975 0.029213749 -0.15062478
-0.1300617 0.04982276 0.118051 -0.08205311 0.023894656 0.012057512 -0.02016414 -0.059476856
0.056486078 -0.01428947 0.03830291 0.11828983 -0.08803507 0.2223178 0.07487599 -0.18754508
0.04469662 0.114842705 -0.14693289 -0.22128034 0.030929442 -0.04142452 -0.029048761 0.08870496
0.043576296 0.10967972 0.21023637 -0.06302536 -0.110748634 0.048954286 0.13227595 -0.20484084
0.31696498 -0.009317538 -0.025255302 -0.07203707 -0.09205892 0.055428233 0.2211189 0.12576172
0.2341541 -0.14413244 0.031165063 -0.12706266 -0.111908525 -0.0066608163 0.15156175 0.20382261
-0.20889434 -0.063469455 0.13784014 0.017392328 0.24896906 0.16068533 0.12330513 -0.022776691
0.19921833 0.030730154 0.18860628 0.12737972 -0.26923573 0.11961873 -0.0604539 0.03224362
-0.0542282 -0.11198644 0.051866896 0.0778915 0.06529378 -0.025117034 0.032120477 0.0634405
0.16629194 -0.044382285 -0.028035186 -0.011877423 0.07472083 0.21791734 0.07183876 -0.07229502
0.011208151 -0.07389821 0.03305653 0.13642196 0.07813371 -0.16529222 -0.027652701 0.03164637
-0.004348008 -0.18429615 0.02159596 0.090034336 -0.13604128 0.14214568 -0.26938382 0.029304506
-0.04716181 -0.08023231 -0.08518698 0.11836755 -0.16015796 0.0037656578 0.006384154 0.17228787
-0.16748704 -0.07008236 -0.002547988 0.1913409 0.10050611 -0.042976785 -0.07355519 0.033109765
00000000: b11c d53d 78fd 2f3e d174 c83d f6d9 8abd
00000010: dfe8 ff3c 03c4 98bd a70b d7bd 04bd 113e
00000020: 2f64 933c 0c3d a93d f8c6 63bc 5b00 09be
00000030: eba5 d7bd b400 cb3d 9654 913c 8cdf d53d
00000040: 5d9d 613e 21e3 26be 5f15 593e 7359 c13d
00000050: 43a6 a83d 2400 8b3d bc5f ef3d 4319 31be
00000060: 701c a9bc a3ba 52bc 5ae1 20bd 813c bb3d
00000070: 3585 b9bc 91a3 8f3c 65ce e13d f2db dc3d
00000080: 854e 5d3e 30d1 93bb 92d7 a03d f973 113c
00000090: a248 143d 9e06 08be c5c4 1f3e 383b 53be
000000a0: d9b1 7a3e e749 8d3c c1fd 333d 236a a83d
000000b0: 4545 0ebe ebc0 c73d 9561 ddbb e954 3ebe
000000c0: a07d 69bd 7b75 80bc db70 90bd 58bc 1c3d
000000d0: 9caf e1bd bb62 283d 5730 e73d 32ba 033e
000000e0: d0c7 bc3c cd70 5f3c 4ff7 863c 649d 65be
000000f0: 1281 1cbd 24a4 69bd fe6d 71be c5d9 ef3d
00000100: 4c29 babd f278 cf3d d955 0a3e f0b2 f73c
00000110: b927 4d3e fccd ad3d 9b34 ae3d 0b96 03be
00000120: cdf7 133d acb7 eebc 830c 8bbe 2e9b e6bc
00000130: 3b50 57bb 3a2d 1d3e c1e3 873d 72d4 1b3e
00000140: d6d0 52bd 4ac4 b33d c697 363e 46ab c4bb
00000150: 1a3c 2e3d 212c 093e 1aa0 b53d 14bb 0a3d
00000160: c202 573d 3c56 ba3d 2b16 793d a2f4 61bd
00000170: a250 693d 5f4e 9a39 e37f 8c3d 3d70 763d
00000180: f005 193e ec60 c2bd c15e dabd 8360 b33c
00000190: ba00 9c3c bdb0 333e 6151 dfbd fe8c c73d
000001a0: 389c 9abd cfe0 b23e 8a4b a43c d6bf fbbd
000001b0: ec18 1c3e 8f8c 80bd ef2d 643e 2635 4c3e
000001c0: 0d12 07be 5ee7 4b3e 2510 e93d 4b1e a0bd
000001d0: da75 bebd b6f0 213d 2de7 dabd 4f0f 89bd
000001e0: 1293 123d b0e2 da3d a2bc a83e bddf 783d
000001f0: 8329 8bbd b4eb 023d 2c56 b13d 1cbc 1e3e
00000200: 8cf1 773e 938e af3d 517d 853c 6d8f 07be
00000210: fdff c93d e1c0 eabc 0805 943e dd9a 3b3d
00000220: c6d9 723b ec27 2abe d879 b4bd 38db 90be
00000230: c81b 003f 0534 893e ac51 ef3c 623d 1abe
00000240: e52e 05be f312 4c3d b9c4 f13d 760b a8bd
00000250: babe c33c df8c 453c 442f a5bc 019e 73bd
00000260: f25d 673d 621e 6abc 83e3 1c3d f041 f23d
00000270: bb4b b4bd 47a7 633e 9558 993d d10b 40be
00000280: ce13 373d a732 eb3d 9375 16be 5097 62be
00000290: be5f fd3c c2ac 29bd abf7 edbc f2aa b53d
000002a0: 0f7d 323d c39f e03d 3448 573e 7113 81bd
000002b0: 2ed0 e2bd 4a84 483d 5973 073e ccc1 51be
000002c0: 3c49 a23e 96a8 18bc 35e4 cebc 2c88 93bd
000002d0: 6389 bcbd b708 633d fe6c 623e aec7 003e
000002e0: 18c6 6f3e 7497 13be e04d ff3c b71c 02be
000002f0: 4c30 e5bd fa42 dabb 0133 1b3e e0b6 503e
00000300: 66e8 55be 46fc 81bd f725 0d3e 5b7a 8e3c
00000310: bff1 7e3e b28a 243e 6687 fc3d 2f96 babc
00000320: e4ff 4b3e cebd fb3c 0122 413e d46f 023e
00000330: 44d9 89be aafa f43d 829e 77bd e311 043d
00000340: 641e 5ebd 2659 e5bd 6272 543d 9485 9f3d
00000350: bfb8 853d 3dc2 cdbc c390 033d 18ed 813d
00000360: 6f48 2a3e 33ca 35bd 0caa e5bc 8699 42bc
00000370: 3c07 993d b925 5f3e 3320 933d 690f 94bd
00000380: 64a2 373c f257 97bd 4966 073d 33b2 0b3e
00000390: 9104 a03d 5d42 29be eb87 e2bc a09f 013d
000003a0: bc79 8ebb 21b8 3cbe 03ea b03c ec63 b83d
000003b0: 684e 0bbe a38e 113e adec 89be 0110 f03c
000003c0: be2c 41bd d650 a4bd 8376 aebd b06a f23d
000003d0: 7300 24be 41c9 763b 2a32 d13b 3b6c 303e
000003e0: b981 2bbe 5787 8fbd 25fc 26bb deee 433e
000003f0: 26d6 cd3d 6d08 30bd 1aa4 96bd 1b9e 073d

network_body._body_endoder.seq_layers.0.bias f4 [256]
-0.12068558 -0.176021 -0.00085106055 -0.11557161 -0.06990697 0.03242648 -0.076475516 -0.061020035
0.01302044 -0.16389257 -0.18400642 -0.10059668 -0.0023220659 0.10285958 -0.12812111 -0.111138485
0.0073678875 -0.06250832 -0.015501309 -0.040297914 -0.06562784 -0.008987012 0.009840528 -0.06636103
-0.066913284 -0.088462256 -0.10960235 -0.034913294 -0.02591786 -0.028322475 -0.13528188 -0.053280044
-0.11762893 0.025554102 -0.074794486 0.019411393 -0.15415262 -0.16581413 -0.13764746 -0.014603366
0.04761617 -0.11491541 -0.017696114 -0.09548946 0.072138645 0.029275715 -0.051082466 0.016472416
-0.06990723 0.107587114 -0.048510283 0.036329865 -0.12793812 0.054985695 0.0036585229 -0.08097545
-0.04203131 -0.0183248 -0.043697096 -0.063503094 -0.06816426 -0.05236146 0.029547723 -0.02279357
-0.06799203 -0.0010116545 0.14640594 -0.103142045 -0.07572535 0.048852127 0.04440128 -0.061548714
-0.045374524 -0.04503269 -0.10468961 -0.08431677 -0.08403309 -0.17253602 -0.11779458 -0.04639679
-0.038973045 -0.05508209 -0.019596934 -0.049773317 0.10955832 -0.07282645 0.08650331 -0.10678962
-0.16014543 0.024926282 0.04464184 0.010958237 -0.1034783 -0.06796908 -0.0064123743 0.011132037
-0.051152494 -0.11296568 -0.09100796 -0.03725055 0.09780854 0.020928042 0.07916301 -0.0773652
-0.13269687 0.07859958 -0.0963418 -0.02298546 -0.042348437 -0.06984455 -0.082807824 -0.12734717
-0.050256863 0.068382084 -0.01886945 -0.0050008064 0.2120073 -0.060817916 -0.09540671 -0.15992571
0.021706687 -0.15827373 -0.037359655 -0.14495088 0.02403876 -0.025875794 -0.12774561 0.06294506
-0.15668659 -0.07135203 -0.13922203 -0.068220295 -0.038042154 -0.05198092 0.045340832 -0.20139699
-0.043705996 -0.051935166 -0.03965593 -0.11446378 -0.019400334 0.06298866 -0.18219596 -0.008830205
-0.0500488 -0.10814465 -0.09195352 -0.027688837 -0.017053442 -0.06525016 0.09615406 -0.13026375
-0.055825636 -0.029888667 -0.11076216 -0.06154332 0.054814 -0.020202741 -0.055642694 -0.10670418
-0.0015421043 -0.023168163 -0.09246627 0.08198672 -0.09022912 -0.061128285 -0.109507844 -0.08140016
-0.05967015 -0.0847486 -0.12758143 -0.0022776534 -0.1173335 -0.158473 0.0136796795 -0.021859495
0.062038776 -0.15612373 -0.17441599 0.027196545 -0.03794519 -0.08754633 -0.021439064 -0.0110698305
-0.15846667 0.041477956 -0.028259624 0.04671909 -0.098068535 -0.0061927093 -0.09642553 -0.08621726
0.09214694 -0.09536176 -0.11691728 -0.10409498 -0.006919134 0.027194481 -0.06217332 -0.08881019
-0.044899117 -0.046006862 -0.05065625 0.023368478 0.00634345 -0.07608689 -0.03696807 0.08004588
-0.08346939 -0.08794923 -0.054933716 -0.16025795 -0.026210986 -0.115689725 -0.0068898583 -0.004288924
-0.037061084 -0.06298386 0.0669417 0.007882683 -0.060333394 -0.043658096 0.03779494 -0.008344415
-0.054594863 -0.08833009 0.02123728 -0.07825446 0.06636748 -0.1437689 0.006388983 -0.1107289
0.051221162 -0.070271306 -0.103331715 0.012851609 -0.10975449 0.027087364 -0.022904992 -0.010115683
-0.043336343 -0.0627669 -0.2142869 -0.20646466 -0.037126366 0.02565313 0.040033318 -0.10445482
-0.027383022 -0.034219377 -0.07345119 0.050101478 -0.09399246 0.021316383 0.010764634 -0.08887228
00000000: 002a f7bd d93e 34be b519 5fba cfb0 ecbd
00000010: 632b 8fbd a1d1 043d 329f 9cbd 25f0 79bd
00000020: af53 553c 74d3 27be 2e6c 3cbe a205 cebd
00000030: cd2d 18bb 0ba8 d23d 2e32 03be 939c e3bd
00000040: 526e f13b 5d04 80bd 34f9 7dbc 6d0f 25bd
00000050: e467 86bd 433e 13bc 2a3a 213c 4be8 87bd
00000060: d509 89bd b32b b5bd 3277 e0bd 3e01 0fbd
00000070: b151 d4bc 8904 e8bc 5587 0abe 2d3c 5abd
00000080: 70e7 f0bd d656 d13c da2d 99bd a404 9f3c
00000090: 2fda 1dbe 2ecb 29be 75f3 0cbe f542 6fbc
000000a0: 2c09 433d c558 ebbd 71f7 90bc fa8f c3bd
000000b0: 6dbd 933d a0d3 ef3c d93b 51bd 29f1 863c
000000c0: 862b 8fbd a256 dc3d b8b2 46bd a0ce 143d
000000d0: 3602 03be ae38 613d d4c3 6f3b 75d6 a5bd
000000e0: 0629 2cbd e41d 96bc bafb 32bd e90d 82bd
000000f0: b499 8bbd f878 56bd 110e f23c 95b9 babc
00000100: 683f 8bbd 7e99 84ba 70eb 153e 233c d3bd
00000110: e415 9bbd 2b19 483d 1ede 353d 811a 7cbd
00000120: a3da 39bd 3374 38bd 8267 d6bd 45ae acbd
00000130: 8a19 acbd 48ad 30be 493e f1bd 8f0a 3ebd
00000140: 33a2 1fbd c29d 61bd c089 a0bc 1bdf 4bbd
00000150: 1d60 e03d 0926 95bd a628 b13d 84b4 dabd
00000160: 2afd 23be 3432 cc3c 5dda 363d 2d8a 333c
00000170: 6eec d3bd 5f33 8bbd e51e d2bb 2663 363c
00000180: 4785 51bd 8d5a e7bd 6262 babd 0894 18bd
00000190: d84f c83d 4971 ab3c 3720 a23d a571 9ebd
000001a0: b0e1 07be d1f8 a03d da4e c5bd 014c bcbc
000001b0: 8e75 2dbd a90a 8fbd 2697 a9bd 4c67 02be
000001c0: 24da 4dbd e80b 8c3d 1b94 9abc cedd a3bb
000001d0: 7118 593e 351c 79bd 9864 c3bd 91c3 23be
000001e0: 39d2 b13c 8212 22be 7006 19bd 016e 14be
000001f0: efec c43c 79f9 d3bc bfcf 02be 57e9 803d
00000200: 7372 20be 0321 92bd 3890 0ebe 15b7 8bbd
00000210: 17d2 1bbd f2e9 54bd 4fb7 393d 033b 4ebe
00000220: 0f05 33bd f8b9 54bd 426e 22bd fc6b eabd
00000230: 73ed 9ebc 3300 813d 9491 3abe 90ac 10bc
00000240: f8ff 4cbd f17a ddbd 2152 bcbd b3d3 e2bc
00000250: a9b3 8bbc e0a1 85bd 6bec c43d dc63 05be
00000260: 6ca9 64bd 14d9 f4bc 45d7 e2bd d914 7cbd
00000270: a584 603d 3880 a5bc 98e9 63bd b987 dabd
00000280: 6f20 caba 29cb bdbc f55e bdbd a7e8 a73d
00000290: 0bca b8bd a761 7abd a645 e0bd 21b5 a6bd
000002a0: b068 74bd ad90 adbd b5a4 02be af44 15bb
000002b0: 8c4c f0bd bf46 22be bc20 603c af12 b3bc
000002c0: 5f1c 7e3d e6de 1fbe 1b9a 32be 4acb de3c
000002d0: 6a6c 1bbd 7e4b b3bd faa0 afbc 3c5e 35bc
000002e0: 1645 22be cae4 293d ba80 e7bc 845c 3f3d
000002f0: 28d8 c8bd 36ec cabb c07a c5bd ad92 b0bd
00000300: 89b7 bc3d 074d c3bd 5472 efbd c02f d5bd
00000310: e7b9 e2bb f6c6 de3c 74a9 7ebd 1ee2 b5bd
00000320: 23e8 37bd b171 3cbd ee7c 4fbd 406f bf3c
00000330: b7dc cf3b 72d3 9bbd d56b 17bd 18ef a33d
00000340: 00f2 aabd ba1e b4bd 2d02 61bd a91a 24be
00000350: 6cb8 d6bc bcee ecbd 52c4 e1bb 1a8a 8cbb
00000360: 5dcd 17bd affd 80bd bb18 893d 5e26 013c
00000370: 2620 77bd d5d2 32bd dece 1a3d 03b7 08bc
00000380: dd9e 5fbd 68e6 b4bd cef9 ad3c e043 a0bd
00000390: aceb 873d 2838 13be ad5a d13b d5c5 e2bd
000003a0: 48cd 513d 67ea 8fbd 949f d3bd 8e8f 523c
000003b0: f6c6 e0bd 52e6 dd3c 40a3 bbbc 40bc 25bc
000003c0: 7381 31bd ef8b 80bd 066e 5bbe 796b 53be
000003d0: d111 18bd 8326 d23c faf9 233d 69ec d5bd
000003e0: 5c52 e0bc 9e29 0cbd 946d 96bd 3537 4d3d
000003f0: 1e7f c0bd b29f ae3c 265e 303c ac02 b6bd

network_body._body_endoder.seq_layers.2.weight f4 [256, 256]
-0.25535172 0.023067368 0.08379792 0.081329465 -0.045113686 -0.14085652 -0.11096457 -0.23785618
0.108535886 -0.011463786 -0.06994183 -0.32227287 -0.03211742 -0.03481774 -0.095108934 0.03637165
-0.017174093 -0.22499749 0.0673191 -0.06881289 -0.16982143 0.007605054 0.13399842 0.0068442496
-0.0046669897 -0.107494675 0.032603085 0.020088894 0.05045843 0.12068255 -0.1152906 -0.19190659
0.026012182 -0.09623624 -0.08892102 -0.13901123 0.099468686 0.018935204 -0.18241291 -0.061498
0.06185362 0.06881205 0.072316594 -0.023716498 -0.025063876 -0.0054074414 -0.06188467 0.1058066
0.050134134 0.15066439 -0.055599906 0.076950744 -0.02504408 0.10117993 -0.057821833 -0.067782484
-0.03603803 -0.16238393 0.07080869 0.038146425 -0.16178638 -0.09389109 0.07769273 -0.015862642
-0.20708175 -0.2625588 0.01864351 -0.08496295 -0.2726159 -0.24589022 0.10020659 -0.14122468
-0.19834884 0.1381964 -0.17042476 0.061805896 -0.0021099797 0.008006815 -0.015108591 -0.14517228
0.014624854 -0.17141865 -0.2962555 0.1328899 -0.17964566 0.061189696 0.1135564 -0.09872313
-0.18898366 -0.04952483 -0.14180371 0.12179193 -0.09357106 0.09682943 0.05964704 -0.13083312
-0.05429534 -0.1285684 0.10118092 -0.011663225 0.017675541 0.19377488 -0.25895524 -0.20876741
0.01895981 0.15310815 -0.008638496 0.13766965 -0.0029239666 0.01718629 -0.14633177 -0.0972585
-0.10703863 -0.004837154 -0.09815393 0.1818882 0.09372684 -0.036498602 -0.21806134 0.05401263
0.1425773 -0.10297223 0.020251077 0.08677076 -0.1511655 0.079713635 0.04481539 0.07376718
-0.19638997 -0.17905916 -0.024658332 -0.23309316 -0.1259785 -0.05987261 -0.14564753 0.020785892
-0.07968001 -0.06582596 -0.024963647 -0.13023944 0.058682185 -0.19890335 0.026198436 0.026275337
-0.028720755 -0.2439111 -0.08336891 -0.021013845 -0.040379703 0.051941324 0.09169529 -0.020539735
0.16404758 0.019430365 -0.19263895 0.011966056 3.1256757e-05 0.017461171 -0.0033342256 -0.083578624
-0.14296336 -0.0002856836 -0.0016261905 -0.00320173 0.1359281 -0.35457727 -0.04559141 0.042187735
-0.30369338 -0.10657614 -0.060633298 -0.032761943 -0.02240828 0.02455207 0.18332721 0.13623579
-0.1182624 -0.020693142 0.17639495 -0.024361841 -0.090920754 -0.08691722 0.11917977 -0.047492553
-0.06008647 -0.070418864 -0.023557581 -0.06707156 -0.09851004 0.05750315 -0.08358961 -0.056066163
-0.10609571 -0.06527641 -0.0818592 0.12619364 0.07803597 -0.06709888 -0.10099519 -0.12602404
0.032448675 0.080894016 0.0072030025 0.01310145 0.13656205 -0.028783288 0.18320742 0.024154304
-0.0950382 -0.10598301 -0.19148043 -0.065714866 -0.21120508 0.035199866 0.010842732 0.052649435
0.046111193 0.06954841 -0.046093974 -0.22218578 -0.36811197 -0.05251157 -0.38693172 -0.075235754
-0.23738916 -0.014234711 -0.06668071 0.022351911 0.11979825 0.14577591 -0.056594282 -0.20722666
-0.103370756 0.025095563 0.21462196 -0.10202108 -0.23542874 0.0415484 -0.13848509 0.123446815
0.07172022 -0.08226875 0.1615069 -0.17345138 -0.30137312 -0.34000096 -0.06864384 -0.26258224
0.016012289 -0.09354967 -0.27244362 0.10260287 -0.034990292 0.03630023 0.06385087 0.084297106
00000000: 76bd 82be c7f7 bc3c 3e9e ab3d 1090 a63d
00000010: 21c9 38bd b13c 10be 6441 e3bd 9290 73be
00000020: 1048 de3d 9ad2 3bbc aa3d 8fbd f300 a5be
00000030: 8e8d 03bd 0c9d 0ebd 79c8 c2bd 70fa 143d
00000040: afb0 8cbc be65 66be 99de 893d c6ed 8cbd
00000050: abe5 2dbe d133 f93b e236 093e ba45 e03b
00000060: 8ced 98bb 2b26 dcbd d08a 053d 7791 a43c
00000070: 80ad 4e3d 6a28 f73d 7a1d ecbd 2983 44be
00000080: 8017 d53c 8117 c5bd 391c b6bd f658 0ebe
00000090: 3db6 cb3d 001e 9b3c 73ca 3abe 54e5 7bbd
000000a0: 395a 7d3d 55ed 8c3d b91a 943d 1a49 c2bc
000000b0: c252 cdbc e830 b1bb c87a 7dbd 21b1 d83d
000000c0: 7359 4d3d c447 1a3e babc 63bd 5a98 9d3d
000000d0: 3e29 cdbc 6c37 cf3d 96d6 6cbd 8bd1 8abd
000000e0: 9d9c 13bd f947 26be 2504 913d 6d3f 1c3d
000000f0: 54ab 25be f949 c0bd 5e1d 9f3d 5ff2 81bc
00000100: 3d0d 54be 1b6e 86be 46ba 983c 0e01 aebd
00000110: 5094 8bbe a5ca 7bbe 1d39 cd3d 349d 10be
00000120: f51b 4bbe 5b83 0d3e d483 2ebe 2e28 7d3d
00000130: 9647 0abb 042f 033c 068a 77bc 0ba8 14be
00000140: 159d 6f3c 5f88 2fbe cdae 97be 4a14 083e
00000150: 08f5 37be 0ca2 7a3d 4290 e83d 5a2f cabd
00000160: ef84 41be 8cda 4abd fe34 11be 0c6e f93d
00000170: 2fa2 bfbd 824e c63d 7450 743d 1ef9 05be
00000180: ca64 5ebd 6fa7 03be f137 cf3d 1c17 3fbc
00000190: 4ccc 903c ec6c 463e c895 84be 20c7 55be
000001a0: 9a51 9b3c 62c8 1c3e 7a88 0dbc 46f9 0c3e
000001b0: 05a0 3fbb 43ca 8c3c ffd7 15be 772f c7bd
000001c0: 1237 dbbd fd80 9ebb ed04 c9bd e640 3a3e
000001d0: dcf3 bf3d 8f7f 15bd 794b 5fbe 593c 5d3d
000001e0: c9ff 113e 1be3 d2bd 96e5 a53c deb4 b13d
000001f0: 21cb 1abe e740 a33d 5890 373d 3f13 973d
00000200: 741a 49be 495b 37be 4500 cabc f9af 6ebe
00000210: 8200 01be fb3c 75bd a024 15be 2d47 aa3c
00000220: 462f a3bd c3cf 86bd 9080 ccbc 7d5d 05be
00000230: bb5c 703d 52ad 4bbe 1a9e d63c 603f d73c
00000240: ca47 ebbc d5c3 79be 52bd aabd 3a25 acbc
00000250: 3065 25bd 6dc0 543d bdca bb3d f242 a8bc
00000260: 17fc 273e 6e2c 9f3c 2543 45be 470d 443c
00000270: b019 0338 bb0a 8f3c 0683 5abb 452b abbd
00000280: fd64 12be cec7 95b9 e625 d5ba 1ed4 51bb
00000290: bc30 0b3e 278b b5be 0fbe 3abd 0ccd 2c3d
000002a0: b37d 9bbe 9744 dabd 9f5a 78bd 6331 06bd
000002b0: 9291 b7bc 6c21 c93c 21ba 3b3e 6581 0b3e
000002c0: 8f33 f2bd aa84 a9bc e1a0 343e 7c92 c7bc
000002d0: a934 babd a801 b2bd 8614 f43d 8d87 42bd
000002e0: 3b1d 76bd c437 90bd d4fb c0bc d05c 89bd
000002f0: a2bf c9bd 6c88 6b3d 0831 abbd a2a5 65bd
00000300: b548 d9bd a3af 85bd cca5 a7bd e838 013e
00000310: 53d1 9f3d 236b 89bd 91d6 cebd 720c 01be
00000320: e7e8 043d c3ab a53d 2a07 ec3b 77a7 563c
00000330: ecd6 0b3e eeca ebbc ba9a 3b3e 3fdf c53c
00000340: 63a3 c2bd 9f0d d9bd 7213 44be 8495 86bd
00000350: 2546 58be bc2d 103d b7a5 313c efa6 573d
00000360: 17df 3c3d 666f 8e3d 09cd 3cbd ab84 63be
00000370: 2c79 bcbe 5f16 57bd ea1b c6be 3415 9abd
00000380: 2516 73be b538 69bc e58f 88bd 5b1b b73c
00000390: c958 f53d 4846 153e 68cf 67bd 3a33 54be
000003a0: 0cb4 d3bd 3695 cd3c dcc5 5b3e 6ef0 d0bd
000003b0: 3b14 71be a82e 2a3d 09cf 0dbe afd1 fc3d
000003c0: 0de2 923d 857c a8bd 1162 253e 3d9d 31be
000003d0: 944d 9abe 9b14 aebe 2495 8cbd 2e71 86be
000003e0: 342c 833c f896 bfbd bb7d 8bbe 7421 d23d
000003f0: fb51 0fbd 8daf 143d 3fc4 823d f6a3 ac3d

network_body._body_endoder.seq_layers.2.bias f4 [256]
-0.00083676603 -0.0935549 0.029279847 -0.06868232 -0.045951013 -0.08371719 -0.06296328 -0.02736778
-0.06558966 0.026844414 -0.011646045 -0.032609504 -0.07066051 -0.1587283 0.030525139 -0.028202942
-0.08253707 -0.05385872 0.015446089 -0.114483275 -0.15713543 -0.07591617 -0.028351435 -0.08542365
0.011418187 -0.123794384 -0.13795401 0.0109700775 -0.12252702 -0.08137655 -0.0745679 -0.0633181
-0.108415686 -0.036885146 -0.04666769 -0.16695125 -0.036328703 -0.083388805 -0.08944696 -0.047998928
-0.085133865 0.0021775188 0.017851742 -0.08036058 0.09342306 -0.086036175 -0.002110041 -0.11441842
-0.014902565 0.09894373 -0.025679614 -0.027806178 -0.12822092 -0.06354164 0.03853932 -0.081583306
-0.06084919 0.019632746 -0.017746879 -0.20776841 -0.05778648 -0.051731225 -0.064449005 0.06799866
-0.0993494 0.011176789 -0.062191103 -0.08549827 -0.123463206 -0.059637997 0.048941635 -0.16379388
-0.08557633 -0.091825396 -0.01006895 -0.073590584 -0.09903425 -0.056262795 -0.011667799 -0.06766655
-0.19393641 -0.051080607 -0.015509483 -0.0068508824 -0.01724588 -0.04257111 -0.062520705 -0.10369754
-0.02135296 -0.053759538 0.026079206 -0.00901589 -0.21078512 -0.08992377 -9.5254356e-05 -0.1771897
-0.10256803 -0.053577945 -0.16422299 -0.10641027 -0.08459482 0.009939185 -0.09321851 -0.06938708
-0.047383595 0.026850525 -0.0035886425 -0.08784267 -0.15938166 -0.044841018 -0.049904816 -0.011277052
-0.007283097 -0.09743789 -0.046331275 -0.005957384 -0.07182534 -0.091900684 0.022230133 -0.11313241
-0.034761712 0.027513582 -0.059800763 0.03855671 -0.13228892 -0.11393313 -0.043371104 -0.21583809
-0.07809214 -0.11566909 -0.13652559 -0.02708779 -0.03709841 -0.04111942 -0.07572099 -0.052787714
-0.07238631 -0.15433125 -0.020934327 -0.06409934 -0.0825832 -0.15505075 -0.031124486 0.036819696
0.024823446 -0.04400179 -0.0376028 -0.1359147 -0.07954582 -0.05811793 0.029270604 -0.108141005
-0.006140722 -0.052782122 -0.114885494 -0.10564586 -0.12991965 0.13428755 0.026667347 -0.06650848
-0.1203243 0.08888206 -0.07764062 -0.04451381 -0.11971247 -0.07046889 -0.11511472 -0.042879675
-0.036398407 0.06452486 -0.036738917 0.053365167 -0.08771094 -0.05968098 -0.054222703 0.013525921
-0.17081785 -0.14778472 -0.1953513 -0.0359636 -0.08744845 -0.13255456 -0.019462781 -0.13903701
-0.04497846 0.09880237 -0.1299117 -0.036455028 -0.025959512 -0.010671156 0.02020684 -0.1394548
-0.028349886 -0.078079045 -0.16590635 -0.0781045 0.038019773 0.03356756 -0.022067253 -0.0023532908
-0.033905324 0.06258335 0.0658812 -0.12043922 -0.07912973 -0.10768224 0.136292 -0.10652699
-0.029976252 0.062728025 -0.0033667795 -0.0805054 -0.08072178 -0.016830826 -0.11526816 -0.13090263
-0.06969477 0.06083926 -0.1490351 0.07753902 -0.051640183 -0.031291466 -0.14915393 -0.14640346
-0.15553674 -0.1815831 -0.02677429 -0.03867048 -0.009845977 -0.08907024 0.06316384 -0.014156924
-0.18820478 -0.12876543 0.0833668 -0.12061453 -0.07187523 0.096724264 -0.08690701 -0.104268976
-0.12277355 -0.052628286 -0.11608769 -0.060688205 -0.062072735 -0.058191992 0.025984365 -0.1243635
-0.17902632 0.014290289 -0.07068012 -0.16564627 -0.08554108 -0.042482402 -0.1639136 -0.16442741
00000000: 6b5a 5bba b699 bfbd 4adc ef3c 51a9 8cbd
00000010: 2137 3cbd eb73 abbd e4f2 80bd 6532 e0bc
00000020: df53 86bd d1e8 db3c 0ecf 3ebc 8b91 05bd
00000030: 75b6 90bd ac89 22be db0f fa3c db09 e7bc
00000040: 3209 a9bd f69a 5cbd 9811 7d3c 3576 eabd
00000050: 1ce8 20be f079 9bbd 4541 e8bc 98f2 aebd
00000060: 5913 3b3c e987 fdbd d143 0dbe d7bb 333c
00000070: 72ef fabd c0a8 a6bd 0eb7 98bd ecac 81bd
00000080: 0b09 debd e114 17bd 9f26 3fbd 45f5 2abe
00000090: 68cd 14bd c0c7 aabd f82f b7bd 869a 44bd
000000a0: aa5a aebd b4b4 0e3b d13d 923c 1694 a4bd
000000b0: 9754 bf3d bc33 b0bd 9d48 0abb 3454 eabd
000000c0: e329 74bc 03a3 ca3d 0e5e d2bc c8c9 e3bc
000000d0: 584c 03be 1f22 82bd 68db 1d3d 2615 a7bd
000000e0: 003d 79bd dad4 a03c e761 91bc 3ec1 54be
000000f0: 84b1 6cbd 1fe4 53bd d7fd 83bd e242 8b3d
00000100: b377 cbbd da1e 373c 19bc 7ebd b819 afbd
00000110: 47da fcbd f946 74bd 0677 483d 95b9 27be
00000120: a542 afbd f40e bcbd 3df8 24bc a9b6 96bd
00000130: 78d2 cabd d173 66bd 4c2a 3fbc c394 8abd
00000140: 4497 46be e639 51bd 7d1b 7ebc 5e7d e0bb
00000150: 3b47 8dbc 0b5f 2ebd db0a 80bd 605f d4bd
00000160: 67ec aebc f632 5cbd 0fa4 d53c 62b7 13bc
00000170: 0ed8 57be f429 b8bd 4bc3 c7b8 3771 35be
00000180: 300f d2bd 8c74 5bbd 122a 28be a1ed d9bd
00000190: 0d40 adbd f7d7 223c 59e9 bebd d01a 8ebd
000001a0: 4d15 42bd a2f5 db3c 6e2f 6bbb dce6 b3bd
000001b0: f234 23be 37ab 37bd fe68 4cbd 62c3 38bc
000001c0: 0ca7 eebb 848d c7bd ddc5 3dbd 2936 c3bb
000001d0: 2a19 93bd 6d36 bcbd f81b b63c f7b1 e7bd
000001e0: 4c62 0ebd 2a64 e13c a5f1 74bd a4ed 1d3d
000001f0: bf76 07be c655 e9bd e6a5 31bd a904 5dbe
00000200: c6ee 9fbd eae3 ecbd 5dcd 0bbe 37e7 ddbc
00000210: 81f4 17bd d66c 28bd 9b13 9bbd ee37 58bd
00000220: 463f 94bd 0309 1ebe 777e abbc 8446 83bd
00000230: 6121 a9bd a0c5 1ebe c7f8 febc 40d0 163d
00000240: 8a5a cb3c 393b 34bd 6505 1abd 392d 0bbe
00000250: ebe8 a2bd 110d 6ebd e8c8 ef3c 0879 ddbd
00000260: 1c38 c9bb 1132 58bd 1649 ebbd db5c d8bd
00000270: a809 05be ad82 093e 7b75 da3c 9935 88bd
00000280: 966c f6bd cc07 b63d 0c02 9fbd 1d54 36bd
00000290: d02b f5bd fe51 90bd 44c1 ebbd 99a2 2fbd
000002a0: 7f16 15bd 9c25 843d 8c7b 16bd 6f95 5a3d
000002b0: cba1 b3bd 0b74 74bd a018 5ebd d39b 5d3c
000002c0: e0ea 2ebe e154 17be 2c0a 48be 914e 13bd
000002d0: 2c18 b3bd 62bc 07be 6970 9fbc b85f 0ebe
000002e0: 553b 38bd e658 ca3d 9307 05be de51 15bd
000002f0: 0ba9 d4bc 13d6 2ebc d188 a53c 3dcd 0ebe
00000300: 053e e8bc e8e7 9fbd 5be3 29be 41f5 9fbd
00000310: 9fba 1b3d 237e 093d 62c6 b4bc ab39 1abb
00000320: 4fe0 0abd b32b 803d b9ec 863d d6a8 f6bd
00000330: c50e a2bd 8288 dcbd 2190 0b3e d32a dabd
00000340: c290 f5bc 8d77 803d 30a5 5cbb 04e0 a4bd
00000350: 7651 a5bd cde0 89bc b711 ecbd 570b 06be
00000360: 22bc 8ebd 9732 793d a89c 18be c7cc 9e3d
00000370: a884 53bd 7b2b 00bd cfbb 18be caea 15be
00000380: 0645 1fbe ecf0 39be c155 dbbc f064 1ebd
00000390: 0551 21bc 756a b6bd 0b5c 813d 71f2 67bc
000003a0: c1b8 40be 16db 03be 36bc aa3d c004 f7bd
000003b0: 5233 93bd 5f17 c63d 4dfc b1bd f98a d5bd
000003c0: b370 fbbd c290 57bd 62bf edbd 3294 78bd
000003d0: fb3f 7ebd ba5a 6ebd 2add d43c 4ab2 febd
000003e0: ad52 37be d121 6a3c bdc0 90bd 2d9f 29be
000003f0: 2930 afbd 0702 2ebd f7d8 27be a95f 28be

network_body._body_endoder.seq_layers.4.weight f4 [256, 256]
0.15707426 0.092839584 -0.063862495 -0.173251 -0.04754601 -0.16915844 0.020802448 0.02580871
0.11651525 0.026395418 -0.05405535 0.06844389 -0.046140704 -0.055488806 0.026275015 -0.08585404
-0.08184448 0.11048113 -0.04400781 0.043295085 0.079069346 0.024042195 -0.107304655 -0.08242517
0.038940873 0.17402276 -0.030752925 0.122863546 0.086745255 -0.029858036 0.030006204 -0.105029635
0.14180636 -0.13050121 0.00037082267 -0.21360645 -0.05842027 0.11411267 -0.024315968 -0.04636145
-0.16647735 -0.031336576 0.14888868 0.084829085 -0.06941067 -0.28432915 -0.09107139 -0.018705707
-0.12343966 -0.08696746 0.05043734 -0.036802795 -0.07561655 0.122559994 0.07246707 -0.07172689
-0.015262894 -0.13793832 -0.18397698 -0.056386605 -0.028415114 -0.026065476 -0.15918438 0.07517549
0.020484686 0.112535775 0.08381776 -0.0553178 0.016048906 -0.091640875 -0.033403467 -0.06801499
-0.077573456 -0.009343453 0.010691373 -0.0979908 -0.1703166 0.05351081 0.075378135 0.06825011
0.04287527 -0.07723139 -0.10175639 -0.056535803 0.20923464 0.012124186 0.08269266 0.094233744
-0.061505653 -0.039969873 -0.102987796 -0.1233616 0.14105439 0.08926376 -0.09370342 0.13572964
-0.009372022 0.12776442 0.065998405 -0.08036158 -0.15388964 -0.089829504 0.051950686 0.093379885
0.25438365 0.10096863 -0.035859242 -0.006842207 0.062343553 -0.009389564 -0.11865163 -0.037520632
-0.045828864 0.25393486 -0.04901753 -0.09092171 -0.057311937 -0.08141642 0.18791111 0.17801428
0.0723154 0.092641905 -0.08167101 -0.11882676 -0.123102374 0.11536556 0.024579626 0.087996304
-0.18738851 -0.10026389 0.14414117 -0.0423567 -0.07912311 -0.0033805978 0.059270073 0.17190434
-0.08099768 -0.041656848 0.01205178 -0.092139885 -0.047711644 0.074622646 -0.117195755 -0.013019341
-0.053092945 -0.10488521 0.21976036 -0.05146287 -0.014211588 -0.006298386 0.24168245 0.004568088
0.010660106 0.062360726 0.041643724 -0.045334086 0.15525813 -0.016711384 0.13298567 -0.03434764
0.13010779 0.0006419242 0.05600223 -0.0035376803 -0.038940586 -0.05518016 -0.23412447 -0.008483367
-0.24138322 0.07518778 -0.16496232 -0.09136016 -0.03827233 -0.114701755 0.0024191306 -0.37589723
-0.082684085 -0.09378575 0.15829709 -0.15059292 -0.007744048 0.01875376 -0.11040521 -0.05961778
-0.10871371 0.0025643625 -0.13916774 -0.17817421 -0.037157446 -0.051009152 -0.102813326 0.05083392
-0.105218366 0.11638797 0.12845612 0.14491865 -0.012711076 0.172837 -0.038445592 0.056880027
-0.0742364 0.115156576 -0.04412459 0.055559758 -0.07282273 -0.12118631 0.03484149 0.0915429
-0.08171848 -0.11081701 0.05334577 -0.09049437 -0.2511951 -0.10239741 -0.09420763 0.014264597
-0.046692222 0.07433078 0.013710883 0.10137311 -0.10636302 0.02862432 0.19113286 -0.007402767
0.046570662 -0.032041494 -0.11023891 -0.09008251 0.066166155 0.20197776 -0.15792552 -0.10682727
0.07078747 -0.011539652 -0.11166175 0.10314952 0.07931486 -0.23394722 0.06282158 -0.23285678
0.12424871 0.16202751 0.027659528 -0.16800705 -0.0033664699 0.101278864 -0.09179533 -0.07496891
-0.09241104 0.15576082 0.062837854 0.12661593 0.09151025 0.24896717 -0.12770359 -0.04555155
00000000: 13d8 203e ae22 be3d 57ca 82bd b668 31be
00000010: 9bbf 42bd df37 2dbe e569 aa3c ca6c d33c
00000020: 8c9f ee3d 343b d83c 2569 5dbd 4f2c 8c3d
00000030: 09fe 3cbd 3b48 63bd b33e d73c 3ed4 afbd
00000040: 149e a7bd ee43 e23d 8941 34bd 3056 313d
00000050: 1cef a13d 23f4 c43c 8bc2 dbbd 87ce a8bd
00000060: 7780 1f3d 0633 323e 8fed fbbc e29f fb3d
00000070: 7fa7 b13d d798 f4bc 92cf f53c c719 d7bd
00000080: b035 113e 1ca2 05be fa6a c239 a6bb 5abe
00000090: 184a 6fbd e7b3 e93d 4832 c7bc 81e5 3dbd
000000a0: 0a79 2abe c85a 00bd 4676 183e dfba ad3d
000000b0: 2e27 8ebd 9793 91be a383 babd b63c 99bc
000000c0: efcd fcbd ff1b b2bd 6297 4e3d 87be 16bd
000000d0: dadc 9abd bc00 fb3d 9d69 943d 8ce5 92bd
000000e0: 3811 7abc b43f 0dbe 7664 3cbe a4f5 66bd
000000f0: d0c6 e8bc 4487 d5bc 3b01 23be 9bf5 993d
00000100: 80cf a73c 2879 e63d a5a8 ab3d eb94 62bd
00000110: ff78 833c 36ae bbbd 13d2 08bd 714b 8bbd
00000120: d5de 9ebd 4815 19bc de2a 2f3c 67af c8bd
00000130: 7a67 2ebe 272e 5b3d da5f 9a3d b7c6 8b3d
00000140: fb9d 2f3d 7e2b 9ebd a765 d0bd 1692 67bd
00000150: 9b41 563e 86a4 463c c55a a93d 9ffd c03d
00000160: 5aed 7bbd 73b7 23bd 44eb d2bd 02a5 fcbd
00000170: 9070 103e ebcf b63d 94e7 bfbd b6fc 0a3e
00000180: 1c8d 19bc add4 023e 2c2a 873d 9d94 a4bd
00000190: 3f95 1dbe 88f8 b7bd 3eca 543d f43d bf3d
000001a0: 933e 823e a4c8 ce3d 24e1 12bd 9834 e0bb
000001b0: f45b 7f3d b0d6 19bc a0ff f2bd 3caf 19bd
000001c0: 0cb7 3bbd c003 823e 9bc6 48bd 2935 babd
000001d0: ecbf 6abd a7bd a6bd c56b 403e 6049 363e
000001e0: 191a 943d 0abb bd3d 2143 a7bd 725b f3bd
000001f0: 191d fcbd c744 ec3d 365b c93c 6837 b43d
00000200: c6e2 3fbe 2857 cdbd be99 133e 387e 2dbd
00000210: 4c0b a2bd 058d 5dbb 2dc5 723d b107 303e
00000220: 1de2 a5bd 5fa0 2abd d474 453c d6b3 bcbd
00000230: 496d 43bd c2d3 983d 5404 f0bd 134f 55bc
00000240: fd77 59bd 0fce d6bd dc08 613e bbca 52bd
00000250: b8d7 68bc b162 cebb 9b7b 773e e6af 953b
00000260: baa7 2e3c f66d 7f3d 9c92 2a3d 3cb0 39bd
00000270: fdfb 1e3e 50e6 88bc 652d 083e 1cb0 0cbd
00000280: fa3a 053e ce46 283a 9862 653d 6dd8 67bb
00000290: 2a80 1fbd 9704 62bd 53be 6fbe d2fd 0abc
000002a0: 2a2d 77be 0dfc 993d e2eb 28be 091b bbbd
000002b0: 72c3 1cbd c1e8 eabd 478a 1e3b 9a75 c0be
000002c0: 4656 a9bd be12 c0bd a218 223e 0835 1abe
000002d0: c8c1 fdbb 7ca1 993c 201c e2bd c631 74bd
000002e0: 4ba5 debd dd0e 283b fd81 0ebe 4d73 36be
000002f0: 6832 18bd f9ee 50bd cb8f d2bd 3a37 503d
00000300: ba7c d7bd d15c ee3d 008a 033e 8e65 143e
00000310: 1e42 50bc 2ffc 303e 2079 1dbd 08fb 683d
00000320: 4109 98bd 36d7 eb3d fcbb 34bd a192 633d
00000330: 1524 95bd 8730 f8bd f3b5 0e3d d87a bb3d
00000340: 055c a7bd 07f4 e2bd 1881 5a3d 1d55 b9bd
00000350: a59c 80be bcb5 d1bd eeef c0bd 0eb6 693c
00000360: 5840 3fbd bc3a 983d 9da3 603c b59c cf3d
00000370: dbd4 d9bd 8d7d ea3c 55b8 433e e992 f2bb
00000380: e1c0 3e3d f13d 03bd f0c4 e1bd 2e7d b8bd
00000390: 1f82 873d 42d3 4e3e 3ab7 21be 41c8 dabd
000003a0: 05f9 903d cf10 3dbc eaae e4bd 0e40 d33d
000003b0: d46f a23d dc8f 6fbe 9aa8 803d 0272 6ebe
000003c0: 1c76 fe3d 8aea 253e 3c96 e23c 0a0a 2cbe
000003d0: fe9f 5cbb 4b6b cf3d 31ff bbbd 4d89 99bd
000003e0: 0042 bdbd c47f 1f3e 22b1 803d 9ba7 013e
000003f0: ba69 bb3d 40f1 7e3e bbc4 02be 4394 3abd

network_body._body_endoder.seq_layers.4.bias f4 [256]
-0.05096937 -0.04217238 -0.047244336 0.05486411 -0.03529267 -0.03758179 -0.054129202 -0.0941429
-0.013571704 -0.18976986 -0.09901312 -0.073270515 -0.066908926 -0.15195274 -0.014413654 -0.004244604
-0.04702582 -0.05062322 0.08385469 -0.16747266 -0.06982146 -0.12904766 -0.06486091 -0.23811312
-0.085039735 -0.21175711 -0.009403126 -0.1113517 -0.05669242 -0.07016762 -0.068599746 -0.0770309
0.025023531 -0.04181396 -0.018569265 -0.113427 -0.098871045 -0.20534337 -0.0684558 0.0613971
-0.065766595 -0.01684135 -0.14080213 0.0104328245 0.03989561 -0.24387532 -0.0153083615 -0.083424754
-0.166276 -0.086155295 0.0671807 -0.030919978 -0.021872185 -0.1817356 0.17481013 -0.08524202
-0.09719393 -0.15831825 -0.06839409 -0.034205537 -0.13389778 -0.22262847 -0.06425674 -0.023614189
-0.07507112 0.07940803 0.00021185617 -0.115757674 -0.112580754 -0.007578119 -0.07429511 -0.008652248
-0.099520065 -0.006952836 0.14793256 -0.06566748 0.026672715 -0.014748875 -0.032974016 -0.033229005
-0.10135247 -0.065035015 -0.1397043 -0.030473808 0.017141994 -0.08964974 -0.1501943 -0.011515553
-0.19986413 -0.049569283 -0.21757276 -0.08574192 -0.03308707 -0.17295124 -0.15247546 0.08749634
-0.08596363 -0.07323309 -0.15028253 -0.090188056 -0.12439991 -0.07759573 -0.046452772 -0.204735
-0.045438617 0.03705992 -0.08819912 -0.10177473 0.13949525 -0.060530677 -0.12047112 0.042668603
-0.103540935 -0.12552458 -0.10806711 0.010314439 -0.06628436 -0.15804069 -0.0034749634 0.04444239
-0.07274249 0.021559343 -0.14663203 -0.1877569 -0.08567706 -0.027552778 0.009237126 0.0010397242
-0.21288013 0.016090864 -0.119789235 -0.09412715 -0.09360305 -0.1432265 -0.02998232 0.10977901
-0.06742323 0.085353516 -0.20658699 -0.062821865 0.08468716 -0.0029876474 -0.08658201 0.014025292
0.06802869 -0.016287075 -0.18247844 0.023942342 -0.118004106 -0.060011767 -0.0039449194 -0.13175778
-0.063168384 -0.14883284 -0.021497829 -0.008941477 -0.104606554 0.059983484 -0.14283748 -0.11491874
-0.06125975 -0.059507325 0.052762404 -0.15316992 0.08228536 -0.08600251 -0.068829775 0.01147663
-0.04909779 -0.14720012 -0.016747082 -0.06364481 -0.12211029 -0.14077933 -0.070287436 -0.20732841
-0.19042793 -0.055802714 -0.09594105 -0.19073513 -0.13635954 -0.23669341 0.050230782 -0.07388058
0.05919491 -0.044246085 -0.0027907442 -0.014892753 -0.056226045 0.076767966 0.0124270115 0.050826147
-0.100426644 -0.06394965 -0.18325666 -0.08447863 -0.026334021 0.013040369 -0.013002952 -0.011150108
0.13957512 -0.07822543 0.009167422 -0.024224544 -0.04646876 -0.15908997 -0.044819906 -0.04885678
-0.035956547 -0.069448136 -0.10264604 -0.14489573 -0.016041813 -0.10839794 -0.17753819 -0.08373531
-0.05973276 -0.09781717 0.10179273 -0.032884203 0.051869024 -0.15639395 -0.21265405 -0.015583071
-0.04202911 -0.061500706 -0.14759324 -0.12087942 -0.07209128 -0.04927543 -0.09430404 0.01908929
-0.12502179 -0.14909773 -0.094371416 0.11088613 -0.07836677 -0.15558025 -0.057133853 -0.009426573
-0.088637024 -0.04796744 -0.100062445 -0.13116953 -0.116402745 -0.021267802 -0.17977525 0.06554837
-0.023814322 -0.06860006 -0.06414825 0.08404547 -0.04489335 -0.07273022 0.08256082 -0.20873961
00000000: 42c5 50bd f2bc 2cbd 4783 41bd 30b9 603d
00000010: 0c8f 10bd 5def 19bd 95b6 5dbd fecd c0bd
00000020: da5b 5ebc 0853 42be 64c7 cabd da0e 96bd
00000030: 8c07 89bd 8099 1bbe 3f27 6cbc 5216 8bbb
00000040: 259e 40bd 4b5a 4fbd 02bc ab3d f47d 2bbe
00000050: 8efe 8ebd 1225 04be ccd5 84bd edd3 73be
00000060: 5029 aebd dbd6 58be 920f 1abc 5c0c e4bd
00000070: 5036 68bd 0bb4 8fbd 067e 8cbd 60c2 9dbd
00000080: 26fe cc3c 1d45 2bbd 921e 98bc 6a4c e8bd
00000090: e77c cabd 8845 52be 8e32 8cbd 877b 7b3d
000000a0: a3b0 86bd dff6 89bc 6f2e 10be 70ee 2a3c
000000b0: 9469 233d 74ba 79be eccf 7abc 99da aabd
000000c0: 4144 2abe 3072 b0bd 0996 893d e54b fdbc
000000d0: 4c2d b3bc e618 3abe 6d01 333e 5e93 aebd
000000e0: 9c0d c7bd 2e1e 22be 3312 8cbd 1b1b 0cbd
000000f0: 801c 09be b8f8 63be 0a99 83bd 8b72 c1bc
00000100: e3be 99bd ada0 a23d b525 5e39 5c12 edbd
00000110: bd90 e6bd df51 f8bb 0928 98bd 29c2 0dbc
00000120: 2dd1 cbbd 9ed4 e3bb a27b 173e ac7c 86bd
00000130: bd80 da3c 44a5 71bc c30f 07bd 231b 08bd
00000140: e291 cfbd 1431 85bd a50e 0fbe 35a4 f9bc
00000150: 5e6d 8c3c 489a b7bd 89cc 19be bbab 3cbc
00000160: 2fa9 4cbe 2909 4bbd 65cb 5ebe 7699 afbd
00000170: 4f86 07bd 211a 31be 8722 1cbe 4831 b33d
00000180: b30d b0bd 3bfb 95bd aae3 19be 84b4 b8bd
00000190: 61c5 febd 83ea 9ebd 4345 3ebd 0da6 51be
000001a0: d81d 3abd 25cc 173d bda1 b4bd 456f d0bd
000001b0: d8d7 0e3e 04ef 77bd 90b9 f6bd 46c5 2e3d
000001c0: 450d d4bd 8489 00be 4a52 ddbd e5fd 283c
000001d0: 18c0 87bd 6bd5 21be 36bc 63bb 3909 363d
000001e0: 04fa 94bd 389d b03c b526 16be 5843 40be
000001f0: 7477 afbd 5db6 e1bc 5157 173c 5b47 883a
00000200: 40fd 59be fdd0 833c 0f54 f5bd bcc5 c0bd
00000210: f5b2 bfbd f8a9 12be 7b9d f5bc d1d3 e03d
00000220: 3115 8abd d3cd ae3d 8a8b 53be c0a8 80bd
00000230: 7670 ad3d 68cc 43bb e951 b1bd 57ca 653c
00000240: a052 8b3d 796c 85bc a1db 3abe bb22 c43c
00000250: 23ac f1bd e6ce 75bd 6244 81bb 83eb 06be
00000260: 6d5e 81bd a367 18be 371c b0bc 467f 12bc
00000270: f63b d6bd 3eb1 753d fd43 12be 845a ebbd
00000280: 81eb 7abd f4bd 73bd 641d 583d 93d8 1cbe
00000290: 3a85 a83d 1522 b0bd a0f6 8cbd 7a08 3c3c
000002a0: c41a 49bd a1bb 16be 2d31 89bc 3658 82bd
000002b0: f614 fabd 7528 10be dcf2 8fbd e64d 54be
000002c0: 8aff 42be 6391 64bd be7c c4bd 1250 43be
000002d0: d6a1 0bbe c25f 72be cbbe 4d3d b44e 97bd
000002e0: 5d76 723d 623b 35bd ebe4 36bb bc00 74bc
000002f0: 484d 66bd 8638 9d3d aa9a 4b3c 142f 503d
00000300: 7cac cdbd 09f8 82bd a2a7 3bbe 2203 adbd
00000310: 72ba d7bc 46a7 553c 550a 55bc f1ae 36bc
00000320: c8ec 0e3e a734 a0bd f432 163c 8d72 c6bc
00000330: 0756 3ebd 7be8 22be 1495 37bd 0c1e 48bd
00000340: 2c47 13bd d33a 8ebd 1638 d2bd 8c5f 14be
00000350: 1f6a 83bc bdff ddbd 92cc 35be 6b7d abbd
00000360: 57aa 74bd 5e54 c8bd b578 d03d 96b1 06bd
00000370: 9d74 543d bc25 20be fcc1 59be 2350 7fbc
00000380: b726 2cbd 2ae8 7bbd af22 17be a18f f7bd
00000390: 98a4 93bd 09d5 49bd 7a22 c1bd 2561 9c3c
000003a0: b605 00be 13ad 18be cd45 c1bd 4418 e33d
000003b0: c27e a0bd 6e50 1fbe 3005 6abd ea71 1abc
000003c0: 5487 b5bd 8279 44bd 8aed ccbd 4e51 06be
000003d0: 9064 eebd d039 aebc 0117 38be 393e 863d
000003e0: 4116 c3bc 307e 8cbd 2860 83bd 0820 ac3d
000003f0: 17e2 37bd 95f3 94bd a615 a93d d6bf 55be

network_body._body_endoder.seq_layers.6.weight f4 [256, 256]
-0.07856403 0.012045322 -0.069529176 0.22837488 0.00070590107 0.085144 -0.02967644 0.2121783
-0.10020734 -0.12931366 0.104790196 0.01455631 0.06003785 0.12125302 -0.10334398 -0.13722223
0.0020407634 0.0950747 -0.012636646 -0.07206928 -0.11331999 -0.073213525 -0.05874613 -0.010366245
-0.0056040655 -0.03635696 -0.18500878 -0.027691845 -0.083133265 -0.0467994 -0.071859375 -0.020752203
-0.19854811 -0.037558507 -0.059716407 0.0076842094 -0.012445949 -0.129239 0.045852095 0.020276263
-0.13215832 0.009926023 0.010914672 -0.19994076 -0.010759751 -0.020316511 0.09757265 0.08965364
0.023879133 0.20780328 -0.0034646504 -0.16497694 0.1543521 0.043194044 -0.06751783 0.054823
-0.29805118 0.101619735 0.13883393 0.03884261 -0.071286105 0.02207712 -0.11529626 0.03381612
0.08342178 -0.039679054 -0.32591528 -0.08693187 0.044474915 0.036029834 -0.14628138 -0.039192572
0.11591331 -0.10269862 -0.04296166 0.020203765 -0.0017033034 0.032689907 -0.12156106 -0.037611842
0.08376358 0.047180425 -0.0033515117 0.028722264 -0.3047938 -0.0767146 0.18484424 -0.12102065
0.0031873656 -0.05834284 -0.03598084 -0.045961842 0.055136226 0.14610568 -0.1970557 -0.21305953
-0.05033913 0.013668187 0.19470395 -0.06162226 0.0066683576 0.15741277 0.22880638 -0.2645966
-0.056081057 -0.1377028 -0.06890802 0.2399328 0.022801261 0.027541358 0.209717 0.111973494
-0.048099298 0.037978586 0.11289253 0.010346012 -0.07415812 -0.018102068 -0.046387386 0.039592624
-0.01935402 -0.16405551 -0.2977549 -0.03218736 -0.04239193 -0.036072355 -0.013178493 0.000357256
0.0131710395 -0.21307965 -0.22651027 -0.24261667 -0.07075217 -0.116346486 -0.13180366 0.11917374
-0.015915122 -0.046350535 -0.028305022 0.031430323 0.058328856 -0.008082459 -0.08710731 -0.078525014
0.11480438 -0.037069686 0.036826227 -0.011629161 0.04391489 -0.19796364 0.06324036 -0.13666467
-0.037705816 0.03903739 0.0029319797 -0.05654889 -0.046352692 -0.0146496175 -0.0694777 -0.08475056
0.068171576 -0.029399402 0.09876787 0.00059824757 -0.094253324 -0.11939303 -0.036337115 -0.0073569273
-0.23103453 0.07566096 -0.06137609 -0.033337872 -0.10869252 -0.042444587 -0.025008751 0.03145495
-0.1552722 -0.017305067 0.03502618 -0.062440865 -0.06476884 -0.06935669 0.018163403 0.093669005
0.016864264 0.00089821336 0.009400085 0.0059359325 -0.050342303 -0.013924885 -0.1638922 -0.034404226
-0.09968497 0.03406438 0.051789682 -0.16209255 0.09483963 -0.049054835 -0.11340097 -0.31624547
0.026661977 -0.027098006 -0.029320814 -0.025085278 -0.13850455 0.012138541 0.12901007 -0.001850051
0.005748329 -0.16476704 0.11055621 0.1771084 0.13756654 0.068285495 -0.11303817 -0.14389823
-0.030864296 -0.019948851 0.06402136 0.030818539 0.03935748 0.18658453 0.24460241 -0.13758993
0.043026514 -0.13648629 0.0576528 0.108916685 0.15803462 0.11181182 -0.018048173 -0.03341319
0.038287852 0.02289574 0.037893046 -0.118388824 -0.043712102 -0.009956321 0.05981662 -0.24801101
0.030419003 -0.0074748565 0.019274559 0.064388424 -0.18770288 -0.29830575 -0.13616373 -0.16309482
0.07088053 -0.0040833433 0.0073072044 -0.042673573 -0.053851217 -0.011192929 -0.05905821 0.14926454
00000000: 2ee6 a0bd be59 453c 5065 8ebd 1bdb 693e
00000010: 380c 393a fa5f ae3d 011c f3bc 4545 593e
00000020: 8239 cdbd cd6a 04be 3e9c d63d 977d 6e3c
00000030: 40ea 753d 8153 f83d 02a6 d3bd fc83 0cbe
00000040: 54be 053b 86b6 c23d ef09 4fbc 0f99 93bd
00000050: 5014 e8bd f9f0 95bd c89f 70bd 2fd7 29bc
00000060: 4fa2 b7bb 09eb 14bd f172 3dbe 02da e2bc
00000070: c641 aabd bab0 3fbd 022b 93bd 8600 aabc
00000080: 3250 4bbe f3d6 19bd 3199 74bd d2cb fb3b
00000090: 18ea 4bbc 3a57 04be 68cf 3b3d 681a a63c
000000a0: 8354 07be c2a0 223c 74d3 323c 45bd 4cbe
000000b0: ab49 30bc d06e a6bc 2bd4 c73d 549c b73d
000000c0: 2c9e c33c 62ca 543e 300f 63bb b7ef 28be
000000d0: 7a0e 1e3e 3dec 303d ca46 8abd 158e 603d
000000e0: 2a9a 98be 021e d03d 7b2a 0e3e 6e19 1f3d
000000f0: 73fe 91bd 14db b43c 7220 ecbd c682 0a3d
00000100: 0ad9 aa3d 8186 22bd 5ede a6be 5609 b2bd
00000110: 542b 363d 0594 133d c9ca 15be 6488 20bd
00000120: f563 ed3d a753 d2bd 91f8 2fbd 5e82 a53c
00000130: 6141 dfba dae5 053d 01f5 f8bd e00e 1abd
00000140: 3d8c ab3d 4340 413d 09a5 5bbb f44a eb3c
00000150: ef0d 9cbe 8b1c 9dbd cf47 3d3e add9 f7bd
00000160: 1fe3 503b e7f8 6ebd a560 13bd 7c42 3cbd
00000170: 86d6 613d ba9c 153e f8c8 49be 472c 5abe
00000180: 6730 4ebd 88f0 5f3c 7960 473e 9f67 7cbd
00000190: 3d82 da3b d030 213e 384c 6a3e 3579 87be
000001a0: 40b5 65bd f601 0dbe a61f 8dbd f2b0 753e
000001b0: b6c9 ba3c 6a9e e13c 0ec0 563e 5c52 e53d
000001c0: c503 45bd 6f8f 1b3d 3334 e73d 5282 293c
000001d0: 36e0 97bd ca4a 94bc b300 3ebd e02b 223d
000001e0: 528c 9ebc 2bfe 27be 5573 98be e5d6 03bd
000001f0: 29a3 2dbd 9bc0 13bd 9bea 57bc 174e bb39
00000200: 58cb 573c 8d31 5abe 4ff2 67be 8170 78be
00000210: 84e6 90bd 1147 eebd 8af7 06be 5d11 f43d
00000220: 6e60 82bc 0fda 3dbd efdf e7bc 15bd 003d
00000230: 3dea 6e3d 4a6c 04bc 5165 b2bd b9d1 a0bd
00000240: 8f1e eb3d 62d6 17bd 19d7 163d 3d88 3ebc
00000250: 1ae0 333d fbb6 4abe 2984 813d d3f1 0bbe
00000260: 6a71 1abd ace5 1f3d 7526 403b cf9f 67bd
00000270: 52dc 3dbd f304 70bc 534a 8ebd b491 adbd
00000280: 8a9d 8b3d 04d7 f0bc cf46 ca3d b7d3 1c3a
00000290: e307 c1bd 5584 f4bd 3ad6 14bd 6112 f1bb
000002a0: 5194 6cbe 22f4 9a3d 7f65 7bbd 4b8d 08bd
000002b0: 2f9a debd 60da 2dbd 27df ccbc e8d6 003d
000002c0: adff 1ebe 5bc3 8dbc 9d77 0f3d fec1 7fbd
000002d0: 87a5 84bd e10a 8ebd 6bcb 943c 89d5 bf3d
000002e0: ed26 8a3c 1476 6b3a d002 1a3c 3682 c23b
000002f0: bb33 4ebd 3325 64bc 5bd3 27be 72eb 0cbd
00000300: a227 ccbd 1787 0b3d 6b21 543d 97fb 25be
00000310: 483b c23d b9ed 48bd c53e e8bd edea a1be
00000320: 386a da3c a3fc ddbc 3432 f0bc a47f cdbc
00000330: 23d4 0dbe bbe0 463c 371b 043e 697d f2ba
00000340: 7b5c bc3b b1b8 28be 4b6b e23d e85b 353e
00000350: 3ede 0c3e 44d9 8b3d 8e80 e7bd 0f5a 13be
00000360: 1fd7 fcbc c66b a3bc a11d 833d 2977 fc3c
00000370: 4f35 213d 0410 3f3e 0e79 7a3e 60e4 0cbe
00000380: 923c 303d 10c3 0bbe 5825 6c3d b60f df3d
00000390: d4d3 213e 98fd e43d c3d9 93bc 45dc 08bd
000003a0: b9d3 1c3d d98f bb3c bd35 1b3d d775 f2bd
000003b0: 760b 33bd d61f 23bc 4602 753d 99f6 7dbe
000003c0: 4631 f93c a4ef f4bb aee5 9d3c 14de 833d
000003d0: 2f35 40be 88bb 98be 816e 0bbe 5402 27be
000003e0: d029 913d 91cd 85bb 4671 ef3b 7cca 2ebd
000003f0: 1893 5cbd 8c62 37bc 06e7 71bd ced8 183e
