Assets/Models/Movement-623377.onnx (onnx, 916930 bytes, 17 tensors)

discrete_act_size_vector f4 [1, 2]
3.0 3.0
00000000: 0000 4040 0000 4040

network_body.observation_encoder.processors.0.normalizer.running_mean f4 [102]
1.6041644e-05 0.71444035 0.031159287 0.2543683 1.443742e-05 0.18272254 1.1229129e-05 0.51408595
0.11700928 0.36884353 4.8124828e-05 0.15473586 4.9729097e-05 0.68134177 0.076115824 0.24247232
1.9249888e-05 0.17808998 6.416658e-06 0.29775694 0.18754134 0.51444775 2.887484e-05 0.13682999
0.00022618714 0.67185354 0.14370419 0.18413867 2.2458353e-05 0.19904222 1.6041639e-06 0.19836433
0.36946473 0.43207192 4.331252e-05 0.12621275 0.0002646867 0.6049817 0.32837388 0.06628088
3.8499973e-05 0.20238248 0.0 0.1698713 0.5039312 0.32616517 0.0 0.12369979
0.000109083165 0.5090397 0.4574532 0.033340972 1.604165e-06 0.17457879 3.208329e-06 0.13521634
0.48153976 0.38319507 1.122914e-05 0.122515894 7.0583184e-05 0.45935017 0.44982132 0.09069933
1.4437469e-05 0.17178826 3.208329e-06 0.10219484 0.5082046 0.38954034 3.208328e-06 0.13228577
3.3687447e-05 0.3777656 0.4711719 0.1509726 4.8124793e-06 0.17520496 6.416657e-06 0.07575822
0.6034122 0.320769 4.8124903e-06 0.15845658 1.9249968e-05 0.16757669 0.6396329 0.19269891
1.6041633e-06 0.17863703 9.624991e-06 0.062002506 0.7246721 0.21325111 1.6041633e-06 0.18441348
9.624991e-06 0.062002506 0.7246721 0.21325111 1.6041633e-06 0.18441348
00000000: 2b91 8637 90e5 363f c341 ff3c 903c 823e
00000010: 3f38 7237 9e1b 3b3e be64 3c37 239b 033f
00000020: 90a2 ef3d 0fd9 bc3e a4d9 4938 1473 1e3e
00000030: 3694 5038 6a6c 2e3f 9de2 9b3d aa4a 783e
00000040: d27a a137 385d 363e ac4e d736 9973 983e
00000050: d60a 403e d9b2 033f 3f38 f237 291d 0c3e
00000060: a62c 6d39 98fe 2b3f 3127 133e d98e 3c3e
00000070: f264 bc37 b9d1 4b3e a74e d735 0520 4b3e
00000080: 7b2a bd3e 8838 dd3e 77aa 3538 ea3d 013e
00000090: a6c5 8a39 15e0 1a3f 9f20 a83e 45be 873d
000000a0: 087b 2138 5a3d 4f3e 0000 0000 bef2 2d3e
000000b0: a301 013f 1fff a63e 0000 0000 5156 fd3d
000000c0: 94c3 e438 6d50 023f 4e37 ea3e 8b90 083d
000000d0: b14e d735 c8c4 323e ac4e 5736 2776 0a3e
000000e0: 618c f63e 2532 c43e ca64 3c37 9de9 fa3d
000000f0: 0f06 9438 f22f eb3e fb4e e63e 92c0 b93d
00000100: 7538 7237 43e9 2f3e ac4e 5736 874b d13d
00000110: b219 023f d571 c73e a84e 5736 ec75 073e
00000120: 9f4b 0d38 7e6a c13e 713d f13e 9098 1a3e
00000130: e27a a136 ee68 333e aa4e d736 2027 9b3d
00000140: 3979 1a3f d63b a43e fa7a a136 7142 223e
00000150: fe7a a137 3999 2b3e fbbe 233f dd52 453e
00000160: a24e d735 a0ec 363e 067b 2137 57f6 7d3d
00000170: 1c84 393f 805e 5a3e a24e d735 e3d6 3c3e
00000180: 067b 2137 57f6 7d3d 1c84 393f 805e 5a3e
00000190: a24e d735 e3d6 3c3e

network_body.observation_encoder.processors.1.normalizer.running_mean f4 [4]
-1.9594406 4.389855 1.957328 0.31132618
00000000: f3ce fabf b179 8c40 b989 fa3f 2566 9f3e

network_body._body_endoder.seq_layers.0.weight f4 [256, 106]
0.12891978 0.21357726 0.090171136 -0.10036288 0.061326515 -0.05737457 -0.06672499 0.15193136
0.06653113 0.044224113 0.02786841 -0.19208105 -0.10055658 0.14666912 0.0126780085 0.057201043
0.23127158 -0.11957088 0.2597715 0.08929553 0.1168561 0.06164308 0.14697634 -0.19754311
-0.012604003 0.0069196774 -0.008384861 0.038364474 -0.010598405 0.04707343 0.11896428 0.09432549
0.2271787 0.0074883145 0.107539035 -0.034311395 0.03524393 -0.09573942 0.12520579 -0.22164267
0.25810724 0.05005798 0.04394317 0.06126641 -0.14303593 0.124217495 -0.0067560175 -0.21154985
-0.028042872 -0.008800253 -0.06486361 0.01523946 -0.09453147 0.067962036 0.109628566 0.096241824
0.052636545 0.011293559 0.046565466 -0.24787037 -0.006610212 -0.034602452 -0.24914943 0.12941633
-0.08023979 0.203903 0.1318359 -0.02123188 0.24279271 0.08030443 0.11511962 -0.16419984
0.041741252 -0.030959954 -0.30541456 0.026143547 0.0070609213 0.13267165 0.08454808 0.112372465
-0.06621465 0.11747869 0.20838325 -0.030350223 0.031363014 0.13089047 0.092064194 0.02841684
0.082519926 0.086584955 0.07957509 -0.023793522 0.07033383 -0.019408481 0.09863047 0.09079597
0.16819967 -0.06354021 -0.09325384 0.0021937818 0.04907075 0.20611033 -0.12488419 0.1305097
-0.07256297 0.3689051 0.07867233 -0.06052272 0.1203472 -0.096379735 0.28021914 0.15933967
-0.07256533 0.19905746 0.1134897 -0.06726693 -0.06284819 -0.04687526 -0.027451886 0.035554923
-0.048495505 0.098164104 0.39185506 0.09054773 0.0060529565 -0.029873375 0.18966323 0.15571488
0.2995418 0.016118007 0.09076317 -0.063380666 0.06803858 -0.07307343 0.3435101 0.08344556
0.011327299 -0.16613 -0.10387079 -0.2618049 0.5269226 0.2739663 0.10704953 -0.09074788
-0.17758457 0.028427327 0.17505206 0.030567791 0.023894656 -0.015501117 -0.01944096 -0.02776677
0.056486078 -0.009930677 0.08943886 0.15855305 -0.10347421 0.18550818 0.10236805 -0.08578227
0.040431842 0.08756157 -0.15192573 -0.18384862 0.057264626 -0.04021268 0.02846378 0.09306887
0.036616594 0.11775572 0.24850579 0.059676964 -0.11501346 0.017703356 0.11135554 -0.14001687
0.37424603 -0.06983244 -0.0031218734 -0.08352697 -0.09673213 0.081473514 0.25648713 0.17065781
0.27276838 -0.1700968 0.024192797 -0.08065178 -0.05458622 -0.03420893 0.18320362 0.20626488
-0.20612235 -0.067413054 0.19500831 0.064754434 0.2881049 0.14073598 0.114797 0.01908691
0.25638726 0.04589026 0.22774419 0.10743083 -0.27774298 0.16148259 -0.003285433 0.047403697
-0.07765654 -0.03697951 0.11001233 0.09990332 0.043891113 -0.005699046 0.028415518 0.04691129
0.12157188 0.021365644 -0.06076958 -0.00034869902 0.07624723 0.19863905 0.01981462 -0.019835033
-0.0076902155 -0.07818042 0.04300338 0.13593437 0.023697682 -0.1164477 -0.07370897 0.033822875
0.02836956 -0.22720422 -0.02313263 0.12445004 -0.16081357 0.15302446 -0.28153843 0.020208541
-0.08849418 -0.043755744 -0.09849437 0.0852326 -0.13608137 0.0008763657 -0.029615546 0.14796694
-0.18852691 -0.044516005 -0.008857232 0.1693856 0.05835493 -0.0722444 -0.07355519 0.040242434
00000000: 8c03 043e ffb3 5a3e a5ab b83d 0e8b cdbd
00000010: 8331 7b3d 9901 6bbd 1da7 88bd e593 1b3e
00000020: 7941 883d 5824 353d 4b4c e43c e5b0 44be
00000030: 9cf0 cdbd 6e30 163e 6cb7 4f3c a44b 6a3d
00000040: 75d2 6c3e 94e1 f4bd c500 853e 93e0 b63d
00000050: 4052 ef3d 747d 7c3d f780 163e be48 4abe
00000060: 0581 4ebc 76be e23b a860 09bc 1124 1d3d
00000070: efa4 2dbc 12d0 403d 8ba3 f33d b92d c13d
00000080: 88a1 683e 8960 f53b 6d3d dc3d 1b8a 0cbd
00000090: f05b 103d 0713 c4bd f235 003e 4cf6 62be
000000a0: a226 843e 9909 4d3d c1fd 333d 7df2 7a3d
000000b0: 0378 12be be65 fe3d 9561 ddbb 86a0 58be
000000c0: 2aba e5bc f02e 10bc 36d7 84bd eeae 793c
000000d0: b799 c1bd ae2f 8b3d f184 e03d 6f1a c53d
000000e0: 6b99 573d 9f08 393c 6ebb 3e3d bbd1 7dbe
000000f0: 7a9a d8bb 4dbb 0dbd 0721 7fbe b785 043e
00000100: c254 a4bd f3cb 503e fdff 063e 7bee adbc
00000110: a79e 783e a676 a43d d6c3 eb3d 0124 28be
00000120: e0f8 2a3d bb9f fdbc 4c5f 9cbe fe2a d63c
00000130: 4d5f e73b 14db 073e 8b27 ad3d 8923 e63d
00000140: 8c9b 87bd ab98 f03d 6b62 553e 08a1 f8bc
00000150: 8176 003d 2708 063e 278c bc3d 6fca e83c
00000160: 3500 a93d 7453 b13d 44f8 a23d a2ea c2bc
00000170: 2f0b 903d 89fe 9ebc c6fe c93d 3df3 b93d
00000180: 893c 2c3e 5f21 82bd dffb bebd 8dc5 0f3b
00000190: 69fe 483d 960e 533e 48c3 ffbd 56a4 053e
000001a0: e59b 94bd 21e1 bc3e f51e a13d ace6 77bd
000001b0: 9878 f63d bd62 c5bd e278 8f3e f029 233e
000001c0: 229d 94bd b8d5 4b3e 4a6d e83d 3fc3 89bd
000001d0: 8db6 80bd 4600 40bd c7e2 e0bc 0aa2 113d
000001e0: 39a3 46bd 430a c93d 3aa1 c83e 1771 b93d
000001f0: e157 c63b 02b9 f4bc 1437 423e b973 1f3e
00000200: 8b5d 993e e909 843c 0ae2 b93d b9cd 81bd
00000210: d057 8b3d 86a7 95bd 8ee0 af3e 81e5 aa3d
00000220: 2396 393c fc1d 2abe 35ba d4bd 4b0b 86be
00000230: 66e4 063f 5045 8c3e c93c db3d 06da b9bd
00000240: bbd8 35be 6de0 e83c d940 333e 4e69 fa3c
00000250: babe c33c 66f8 7dbc a642 9fbc 2377 e3bc
00000260: f25d 673d 47b4 22bc b92b b73d bb5b 223e
00000270: 49ea d3bd dbf5 3d3e 57a6 d13d 9dae afbd
00000280: dc9b 253d 7b53 b33d 6b92 1bbe d042 3cbe
00000290: 508e 6a3d 0db6 24bd e02c e93c e49a be3d
000002a0: 48fb 153d e929 f13d 4d78 7e3e d56f 743d
000002b0: 2d8c ebbd a106 913c 600e e43d 9560 0fbe
000002c0: 2d9d bf3e 4f04 8fbd 5898 4cbb 3010 abbd
000002d0: 7f1b c6bd 96db a63d 4852 833e ecc0 2e3e
000002e0: 4ca8 8b3e db2d 2ebe f92f c63c c32c a5bd
000002f0: cd95 5fbd aa1e 0cbd bb99 3b3e 1a37 533e
00000300: bd11 53be db0f 8abd 42b0 473e f99d 843d
00000310: 7c82 933e 181d 103e b11a eb3d 275c 9c3c
00000320: 3145 833e 6df7 3b3d c635 693e b204 dc3d
00000330: 5434 8ebe b15b 253e 6b50 57bb 612a 423d
00000340: 640a 9fbd d477 17bd 254e e13d 1d9a cc3d
00000350: 2bc7 333d 10bf babb a9c7 e83c 0e26 403d
00000360: aefa f83d 0107 af3c 86e9 78bd 97d1 b6b9
00000370: 8227 9c3d 0968 4b3e 4552 a23c 147d a2bc
00000380: 34fe fbbb 0e1d a0bd 5024 303d 6132 0b3e
00000390: a421 c23c 227c eebd baf4 96bd db89 0a3d
000003a0: 4867 e83c 39a8 68be a480 bdbc aadf fe3d
000003b0: 50ac 24be 72b2 1c3e ce25 90be 628c a53c
000003c0: 703c b5bd 3939 33bd 6bb7 c9bd 6e8e ae3d
000003d0: ea58 0bbe e8bb 653a 4d9c f2bc a584 173e
000003e0: 330d 41be 6a56 36bd ec1d 11bc 6b73 2d3e
000003f0: 9405 6f3d dff4 93bd 1aa4 96bd 40d5 243d

network_body._body_endoder.seq_layers.0.bias f4 [256]
-0.1508786 -0.23372093 0.044116594 -0.11528856 -0.07194654 0.04887086 -0.090224124 -0.07319974
-0.019992312 -0.16828114 -0.22064294 -0.17490718 -0.011088641 0.10004503 -0.19482765 -0.09455863
-0.02412561 -0.09767295 -0.013790569 -0.055909075 -0.112591274 -0.060591083 -0.014981302 -0.051987164
-0.073751375 -0.101246774 -0.11442162 -0.057950802 -0.07139929 -0.08106016 -0.1490062 -0.07576659
-0.09833384 0.03538374 -0.09227966 -0.031251326 -0.19603954 -0.17802078 -0.12573971 -0.05711379
0.039698992 -0.11631606 0.009319484 -0.1446658 0.09694599 0.039066818 -0.05603757 0.101001345
-0.12988962 0.103367746 -0.048418373 0.04504653 -0.13413027 0.034992523 -0.035374064 -0.10367878
-0.08938216 -0.012072391 -0.03659092 -0.09033936 -0.13265069 -0.1300923 0.063736625 -0.023861386
-0.069114126 -0.010604727 0.15340403 -0.17583326 -0.09469098 0.026908295 0.03455053 -0.058652822
-0.10371207 -0.055058055 -0.08470306 -0.08186456 -0.13003871 -0.18872084 -0.09283428 -0.07502571
-0.068570964 -0.056955736 -0.029665021 -0.074426435 0.11535013 -0.049583476 0.081325665 -0.03955024
-0.17408437 0.016002476 0.06367579 0.002678129 -0.057531398 -0.054465868 -0.03660901 0.037501886
-0.06338103 -0.15632926 -0.062808864 -0.13040018 0.08613641 0.06379612 0.06600113 -0.08792422
-0.19964606 0.0708699 -0.07583722 -0.016971728 -0.068934746 -0.08430741 -0.15803938 -0.1372118
-0.13116221 0.0801679 -0.013769253 -0.052427843 0.21013106 -0.060497474 -0.17454846 -0.17999619
0.0666015 -0.19217569 -0.05421525 -0.123183474 -0.017054338 0.01625236 -0.19164148 0.073559284
-0.17187262 -0.04655624 -0.093975544 -0.08244446 -0.033706054 -0.09563531 0.051628426 -0.24395008
-0.048494082 -0.03201504 -0.062642924 -0.18077123 -0.035193313 0.035685398 -0.21904448 -0.037645314
-0.032397453 -0.18865785 -0.1095388 -0.027087023 -0.013457689 -0.06122389 0.11371602 -0.14792736
-0.03307402 -0.027558466 -0.16065061 -0.06911399 0.079227194 -0.0016736937 -0.10527004 -0.11259931
-0.0063739447 -0.044494994 -0.07134277 0.1108146 -0.11586238 -0.1152834 -0.11238283 -0.13743234
-0.08322234 -0.08805435 -0.1834701 0.019254748 -0.13230115 -0.15121217 0.05248309 -0.013372451
0.05179807 -0.17385264 -0.16778547 0.041690852 -0.047065724 -0.11323912 -0.056313936 -0.04331652
-0.20917642 0.027466971 -0.046241418 0.03716373 -0.052459724 -0.023464011 -0.17269206 -0.08544852
0.07405357 -0.101506196 -0.111534074 -0.16735598 -0.04298618 0.03117369 -0.124341436 -0.10049403
-0.094859906 -0.07466753 -0.087240495 -0.06963118 0.053093635 -0.10612335 -0.00024604794 0.087801546
-0.102504976 -0.12799655 -0.08445853 -0.11762634 -0.05696518 -0.16045347 0.014257238 -0.02972513
-0.04617547 -0.044608884 0.019897118 0.019134412 -0.07944851 -0.053152557 0.048038296 -0.036231555
-0.073061064 -0.11034678 0.011508586 -0.0752258 0.096052215 -0.1549333 -0.024526589 -0.13318165
0.029925793 -0.05183981 -0.11295406 0.03247016 -0.16242291 0.026682518 0.0009485497 -0.043504376
-0.00835935 -0.0840809 -0.24644259 -0.20957358 -0.030872494 0.025757674 -0.0018967936 -0.12197499
-0.029204566 -0.020878771 -0.07058392 0.05892789 -0.0964753 0.03380797 -0.009636861 -0.10683441
00000000: eb7f 1abe 8a54 6fbe 9ab3 343d 691c ecbd
00000010: b558 93bd d02c 483d 6dc7 b8bd bfe9 95bd
00000020: ebc6 a3bc e451 2cbe 39f0 61be de1a 33be
00000030: 22ad 35bc 69e4 cc3d e680 47be f4a7 c1bd
00000040: 12a3 c5bc c108 c8bd d7f1 61bc ea00 65bd
00000050: 4196 e6bd 5b2e 78bd 2374 75bc 7ef0 54bd
00000060: f60a 97bd 785a cfbd e255 eabd d25d 6dbd
00000070: ca39 92bd df02 a6bd 1595 18be 842b 9bbd
00000080: 4163 c9bd 8aee 103d 1efd bcbd 6401 00bd
00000090: 97be 48be 144b 36be e9c1 00be 26f0 69bd
000000a0: 699b 223d 1d37 eebd c0b0 183c 4523 14be
000000b0: 9f8b c63d 8704 203d a787 65bd cbd9 ce3d
000000c0: c901 05be 78b2 d33d 5852 46bd b682 383d
000000d0: 7259 09be 5254 0f3d 65e4 10bd 8a55 d4bd
000000e0: fe0d b7bd 47cb 45bc 5ce0 15bd d803 b9bd
000000f0: 95d5 07be ea36 05be 5988 823d f478 c3bc
00000100: b58b 8dbd 73bf 2dbc f215 1d3e a20d 34be
00000110: 58ed c1bd c96e dc3c db84 0d3d f13d 70bd
00000120: fe66 d4bd 8e84 61bd cc78 adbd 9ba8 a7bd
00000130: de28 05be 0940 41be e61f bebd 14a7 99bd
00000140: ef6e 8cbd 6b4a 69bd 0f04 f3bc e36c 98bd
00000150: b03c ec3d 0b18 4bbd 128e a63d 6fff 21bd
00000160: 2c43 32be a017 833c 7468 823d 8c83 2f3b
00000170: 0ba6 6bbd 9a17 5fbd 54f3 15bd 949b 193d
00000180: eacd 81bd c714 20be efa1 80bd a087 05be
00000190: 4968 b03d 8aa7 823d 9a2b 873d 9d11 b4bd
000001a0: 0470 4cbe 3d24 913d 8b50 9bbd 4b08 8bbc
000001b0: a92d 8dbd 5da9 acbd 13d5 21be 4081 0cbe
000001c0: 634f 06be 112f a43d 6f98 61bc 94be 56bd
000001d0: 992c 573e 33cc 77bd d5bc 32be ec50 38be
000001e0: 5e66 883d b4c9 44be cf10 5ebd 9e47 fcbd
000001f0: 8ab5 8bbc ab23 853c aa3d 44be 40a6 963d
00000200: 60ff 2fbe c2b1 3ebd 4076 c0bd a4d8 a8bd
00000210: 5c0f 0abd 72dc c3bd 5478 533d 0dce 79be
00000220: bba1 46bd 3422 03bd ef4a 80bd 181c 39be
00000230: dd26 10bd da2a 123d 324d 60be f931 1abd
00000240: 31b3 04bd 862f 41be e155 e0bd 9be5 ddbc
00000250: a47d 5cbc e7c5 7abd f2e3 e83d 457a 17be
00000260: a078 07bd 4bc2 e1bc 9881 24be a38b 8dbd
00000270: de41 a23d d75f dbba d297 d7bd 789a e6bd
00000280: 86dc d0bb 6240 36bd 281c 92bd c4f2 e23d
00000290: 4149 edbd b419 ecbd f828 e6bd 10bb 0cbe
000002a0: 7970 aabd d755 b4bd 96df 3bbe 22bc 9d3c
000002b0: f479 07be 5dd7 1abe 82f8 563d 2018 5bbc
000002c0: 372a 543d 6d06 32be f4cf 2bbe 07c4 2a3d
000002d0: fdc7 40bd e9e9 e7bd 71a9 66bd aa6c 31bd
000002e0: 5832 56be 6a02 e13c a467 3dbd ff38 183d
000002f0: 02e0 56bd 9937 c0bc 30d6 30be a2ff aebd
00000300: 66a9 973d 7be2 cfbd fa6b e4bd 5e5f 2bbe
00000310: 4712 30bd f75f ff3c b9a6 febd d0cf cdbd
00000320: e945 c2bd 4aeb 98bd 25ab b2bd cb9a 8ebd
00000330: b678 593d 3357 d9bd ffff 80b9 4cd1 b33d
00000340: 21ee d1bd 8711 03be 98f8 acbd 14e6 f0bd
00000350: 5254 69bd ea4d 24be 3197 693c 1e82 f3bc
00000360: 7d22 3dbd ceb7 36bd 48ff a23c c5bf 9c3c
00000370: e7b5 a2bd 7fb6 59bd cec3 443d 8a67 14bd
00000380: 0aa1 95bd 7efd e1bd 828e 3c3c fc0f 9abd
00000390: 06b7 c43d d6a6 1ebe fceb c8bc c560 08be
000003a0: f026 f53c fb55 54bd 7554 e7bd 6eff 043d
000003b0: 3152 26be 4c95 da3c 18a8 783a a531 32bd
000003c0: a8f5 08bc 9b32 acbd 725b 7cbe 759a 56be
000003d0: 50e8 fcbc c201 d33c d59d f8ba 06ce f9bd
000003e0: 6a3e efbc f509 abbc 4d8e 90bd 5f5e 713d
000003f0: d894 c5bd 3a7a 0a3d ede3 1dbc 00cc dabd

network_body._body_endoder.seq_layers.2.weight f4 [256, 256]
-0.32596543 -0.018285522 0.07950996 0.069662 0.023014266 -0.11759773 -0.12396988 -0.17285357
0.10486027 -0.09114555 -0.18377073 -0.38679054 -0.03358973 -0.03236891 -0.15580483 0.011895
0.035496842 -0.11082156 0.08417321 -0.018894842 -0.16687022 0.013496244 0.14431794 0.008163366
0.045834776 -0.025827428 0.08419732 0.10854613 0.010549356 0.056253497 -0.13959675 -0.21906625
-0.0656756 0.013291301 -0.017243007 -0.22725198 0.09051963 -0.041577704 -0.19458097 -0.092079915
0.0642425 0.025385236 0.1266825 0.049394075 -0.0026211706 0.0137233995 0.032191288 0.15177228
0.051019043 0.14336628 -0.0887076 0.17984724 -0.041599896 0.15818514 -0.054802816 -0.058916662
-0.0008156456 -0.19016106 0.09026859 0.047696177 -0.15364349 -0.20646432 0.14473014 0.022101296
-0.12705941 -0.18193433 0.07433333 -0.1012527 -0.36456126 -0.13446213 0.16240008 -0.24007042
-0.112263985 0.14815862 -0.18557264 0.041446663 -0.04804745 0.07518229 -0.06873963 -0.15098107
0.01633099 -0.0978663 -0.30017138 0.13857673 -0.095868304 0.076950274 0.22545515 -0.08976886
-0.22432208 0.09370349 -0.16586947 0.20141578 -0.107937634 0.09773517 0.028223826 -0.07541458
-0.03227697 -0.18332282 0.12512982 -0.16758424 0.10128303 0.31585285 -0.28744233 -0.2909302
-0.01548668 0.2881764 0.003319989 0.14457259 -0.06942671 -0.007907173 -0.06421389 -0.037390146
-0.14050712 0.0032618796 -0.19848335 0.13590068 0.20719123 -0.067980975 -0.33298108 0.088482454
0.22845043 -0.14479603 0.05874241 0.1408646 -0.20784639 0.15783827 0.026862683 0.123764314
-0.2872764 -0.27006957 0.018335646 -0.22635144 -0.011325207 -0.010898916 -0.076717064 -0.10230464
-0.11520635 -0.039166253 -0.046001766 -0.24381158 0.12784834 -0.067211114 0.000106287094 0.052823
0.05726326 -0.29214868 -0.116057105 0.02340838 -0.0962486 0.057467394 0.15624008 -0.023736456
0.16496451 -0.024807015 -0.2231168 -0.063324936 0.0010081538 0.03607409 0.041742317 -0.12654349
-0.16591053 0.020423537 0.03553613 0.13018431 0.013990521 -0.44066286 -0.033025842 -0.028555812
-0.30781448 -0.15482421 -0.05269212 -0.00013991901 -0.05222887 0.153212 0.22606361 0.103106156
-0.12272435 0.0040822434 0.13900594 -0.059987012 -0.05581868 -0.20764734 0.1160605 -0.1325348
-0.043946005 -0.08561505 0.01843076 -0.017144796 -0.06495692 0.13731693 -0.04934475 0.023885954
-0.065526485 0.006927101 0.07495651 0.1472562 0.11315714 -0.08136681 -0.10717133 -0.13212793
0.100956656 0.055455588 0.01648331 0.0015833748 0.13227212 -0.06939979 0.26496008 0.10183559
-0.11964873 -0.17512721 -0.23314296 -0.091919236 -0.24269186 -0.044260647 0.016084958 0.04483345
0.0051687476 0.016777577 -0.041488867 -0.24585448 -0.46544588 -0.005967062 -0.4146224 -0.1958847
-0.32331297 -0.019014131 0.008083963 0.07695286 0.12747408 0.13800816 -0.028346954 -0.14748548
0.016967736 0.0377137 0.24230054 -0.036888123 -0.19844362 0.045006666 -0.14710772 0.0803911
0.060154613 -0.048826616 0.13242058 -0.23476712 -0.35681844 -0.29961804 0.031156009 -0.2626226
0.10037387 -0.045085404 -0.21918318 0.10919983 -0.024233371 0.1467924 0.090626694 -0.06265783
00000000: f1e4 a6be 85cb 95bc 1ed6 a23d f3aa 8e3d
00000010: 6a88 bc3c 14d7 f0bd ece3 fdbd 8700 31be
00000020: fbc0 d63d 85aa babd 652e 3cbe 6909 c6be
00000030: 6295 09bd 4395 04bd 4d8b 1fbe 3fe3 423c
00000040: 2365 113d 6af6 e2bd 0163 ac3d 5bc9 9abc
00000050: 07e0 2abe 5a1f 5d3c 15c8 133e a3bf 053c
00000060: 3fbd 3b3d 0b94 d3bc a56f ac3d 6f4d de3d
00000070: 35d7 2c3c 116a 663d 73f2 0ebe e752 60be
00000080: ee80 86bd c2c3 593c 3541 8dbc beb4 68be
00000090: 5b62 b93d 624d 2abd 3c40 47be 6594 bcbd
000000a0: 9291 833d b3f4 cf3c 0fb9 013e 7151 4a3d
000000b0: f2c7 2bbb 1cd8 603c 03db 033d 316a 1b3e
000000c0: 58f9 503d 9cce 123e 55ac b5bd e029 383e
000000d0: a764 2abd 49fb 213e eb78 60bd 9952 71bd
000000e0: 0dd1 55ba 95b9 42be bdde b83d 115d 433d
000000f0: b854 1dbe 626b 53be 2334 143e c70d b53c
00000100: dd1b 02be fe4c 3abe 133c 983d 935d cfbd
00000110: c6a7 babe 71b0 09be 354c 263e 05d5 75be
00000120: a9ea e5bd e5b6 173e c106 3ebe fac3 293d
00000130: 67cd 44bd 2cf9 993d 5dc7 8cbd c89a 1abe
00000140: 91c8 853c 206e c8bd 10b0 99be 0fe7 0d3e
00000150: 9a56 c4bd 1b98 9d3d b7dd 663e bcd8 b7bd
00000160: b0b4 65be 9ee7 bf3d b0d9 29be f03f 4e3e
00000170: 680e ddbd 6029 c83d a735 e73c f672 9abd
00000180: db34 04bd fab8 3bbe 0822 003e 349b 2bbe
00000190: 7a6d cf3d 77b7 a13e a42b 93be cef4 94be
000001a0: d8bb 7dbc db8b 933e 2c94 593b d60a 143e
000001b0: 972f 8ebd 168d 01bc 9282 83bd 6926 19bd
000001c0: 19e1 0fbe 42c5 553b 383f 4bbe 8c29 0b3e
000001d0: f029 543e 9c39 8bbd 7f7c aabe 4a36 b53d
000001e0: e9ee 693e 6945 14be e29b 703d cf3e 103e
000001f0: afd5 54be 5ba0 213e 210f dc3c 2578 fd3d
00000200: e415 93be 8f46 8abe a334 963c acc8 67be
00000210: 5c8d 39bc 5e91 32bc d61d 9dbd 1885 d1bd
00000220: 4ff1 ebbd cb6c 20bd 596c 3cbd bea9 79be
00000230: adea 023e fba5 89bd 73e6 de38 ee5c 583d
00000240: e18c 6a3d 8394 95be 59af edbd eec2 bf3c
00000250: fc1d c5bd ee62 6b3d 66fd 1f3e f572 c2bc
00000260: 75ec 283e 1538 cbbc bb78 64be 81b0 81bd
00000270: 0724 843a 6dc2 133d fef9 2a3d 9e94 01be
00000280: 73e4 29be 434f a73c 558e 113d 094f 053e
00000290: 8038 653c 909e e1be 1b46 07bd e1ed e9bc
000002a0: dc99 9dbe 3d8a 1ebe b1d3 57bd 39b7 12b9
000002b0: f1ed 55bd 9be3 1c3e 387d 673e 5229 d33d
000002c0: e756 fbbd 57c4 853b 9357 0e3e f1b4 75bd
000002d0: 21a2 64bd 81a1 54be 21b1 ed3d 34b7 07be
000002e0: ba00 34bd f156 afbd 1bfc 963c 3e73 8cbc
000002f0: 2208 85bd cf9c 0c3e b81d 4abd 7aac c33c
00000300: c032 86bd bcfc e23b cc82 993d 54ca 163e
00000310: eebe e73d a4a3 a6bd a47c dbbd 8b4c 07be
00000320: 5dc2 ce3d 6625 633d 0208 873c 3e89 cf3a
00000330: 5872 073e 7a21 8ebd d9a8 873e 2e8f d03d
00000340: 650a f5bd 8c54 33be 07bd 6ebe 2740 bcbd
00000350: 3784 78be a74a 35bd 9ac4 833c 48a3 373d
00000360: 995e a93b 2171 893c 3bf0 29bd 47c1 7bbe
00000370: ec4e eebe 5887 c3bb 6349 d4be 0096 48be
00000380: 4789 a5be 86c3 9bbc 9972 043c 7699 9d3d
00000390: 9188 023e 0352 0d3e df37 e8bc 6f06 17be
000003a0: ecff 8a3c ae79 1a3d a21d 783e 0018 17bd
000003b0: ce34 4bbe e958 383d 68a3 16be 17a4 a43d
000003c0: af64 763d 6bfe 47bd 4399 073e cb66 70be
000003d0: e8b0 b6be 8967 99be e33a ff3c 7876 86be
000003e0: d190 cd3d 79ab 38bd 8e71 60be 29a4 df3d
000003f0: 1085 c6bc bf50 163e 7d9a b93d c052 80bd

network_body._body_endoder.seq_layers.2.bias f4 [256]
0.05604276 -0.107742295 0.04300381 -0.077140726 -0.015643002 -0.08495197 -0.0729482 0.01107726
-0.044986304 0.0361153 0.011756571 -0.09978218 -0.09376914 -0.109034956 -0.013487172 -0.031852853
-0.10230152 -0.09897446 -0.014896239 -0.15407597 -0.14740653 0.004440881 -0.057998106 -0.10108012
0.017178744 -0.12545152 -0.13735817 -0.012647999 -0.1489545 -0.095675245 -0.09517394 0.003842899
-0.14482357 -0.012806843 -0.08234343 -0.1995782 -0.05721569 -0.16274366 -0.16748388 -0.025699941
-0.19882503 -0.006850019 0.024143213 -0.115339465 0.07979733 -0.16158207 -0.060848467 -0.15525988
-0.089491464 0.051309604 -0.0255503 -0.09201332 -0.16993828 -0.06897211 0.05065712 -0.06921556
-0.116916746 0.014402464 -0.10813636 -0.24930301 -0.10691799 -0.09038203 -0.07308182 0.09678173
-0.07988906 -0.040796977 -0.08544384 -0.105058886 -0.11181894 -0.12629965 0.050498165 -0.16225517
-0.11138689 -0.07504719 0.0054584253 -0.04037184 -0.08893472 -0.066856205 -0.087981544 -0.07334184
-0.22644769 -0.092376724 -0.017221145 0.027486436 -0.08135082 -0.065829314 -0.0792433 -0.10426058
-0.024946276 -0.06899528 -0.026993493 -0.009332917 -0.29583532 -0.11138722 0.04617185 -0.19379927
-0.13899598 -0.06644799 -0.20491089 -0.13947433 -0.06649993 -0.004229094 -0.078819305 -0.06654072
-0.042061474 -0.018291736 -0.023486458 -0.11424468 -0.22458237 -0.049877893 -0.14354236 -0.01276041
0.011667646 -0.1233866 -0.054270193 0.005564017 -0.07994975 -0.1893317 -0.011182205 -0.0120950565
-0.02426514 0.06497647 -0.084919 0.03928815 -0.15946108 -0.16258961 -0.021214982 -0.15029734
-0.0851062 -0.14759496 -0.15458134 -0.038922098 -0.07406293 -0.03743921 -0.09631817 -0.06137784
-0.15525708 -0.18905589 -0.07486947 -0.09925086 -0.15343517 -0.1965263 -0.10024281 0.05326781
0.036436073 -0.07010951 -0.08878158 -0.1586998 -0.092342824 -0.06934567 -0.040801957 -0.16486166
0.05388732 -0.047009446 -0.184374 -0.10414512 -0.064244814 0.12580132 0.0249888 -0.05341025
-0.17437643 0.05419848 -0.13444684 -0.06089529 -0.10387199 -0.09362922 -0.105599925 -0.010786106
-0.07857616 0.037783064 -0.059880577 0.07955541 -0.06017506 -0.11044652 -0.07659132 0.027149174
-0.187492 -0.06996751 -0.18567371 -0.048623756 -0.11968946 -0.18052723 -0.043744706 -0.10770423
-0.12042903 0.12383676 -0.11197241 -0.017612536 -0.044486094 0.020613067 0.051845282 -0.15671915
-0.025569366 -0.08518647 -0.16534054 -0.08423816 0.029531743 -0.0089475885 -0.07621342 -0.0074899956
0.005902315 0.009204343 0.089570515 -0.19855815 -0.06544839 -0.039442517 0.13807681 -0.061737232
-0.048392408 0.04922665 -0.0006570651 -0.08066792 -0.10135668 -0.072906286 -0.08314862 -0.09546876
-0.08766024 0.0787325 -0.1378482 0.08190784 -0.08303379 -0.06972954 -0.13575608 -0.16259031
-0.13984604 -0.21453919 -0.10389195 -0.004172073 -0.029153248 -0.059943907 -0.0059242165 -0.018805275
-0.1590546 -0.18458816 0.05700154 -0.15025555 -0.10979855 0.12535168 -0.12190145 -0.11436133
-0.111652076 -0.0777258 -0.13478334 -0.06698364 -0.03732151 -0.034917727 0.010665739 -0.13465121
-0.2309473 0.031487808 -0.08674065 -0.18583603 -0.12161019 -0.05282628 -0.09504436 -0.10158227
00000000: 188d 653d fea7 dcbd c324 303d f5fb 9dbd
00000010: c125 80bc 4cfb adbd de65 95bd 657d 353c
00000020: 8f43 38bd a3ed 133d a29e 403c 995a ccbd
00000030: 090a c0bd b84d dfbd 4df9 5cbc 2378 02bd
00000040: 7683 d1bd 1fb3 cabd 5b0f 74bc 17c6 1dbe
00000050: bdf1 16be cf84 913b 6c8f 6dbd 1803 cfbd
00000060: 70ba 8c3c 5d76 00be 9fa7 0cbe 8e39 4fbc
00000070: 8787 18be 62f1 c3bd 8eea c2bd 26d9 7b3b
00000080: a14c 14be cbd3 51bc aca3 a8bd 3a5e 4cbe
00000090: 005b 6abd 46a6 26be e580 2bbe af88 d2bc
000000a0: ca98 4bbe 2076 e0bb fdc7 c53c 1937 ecbd
000000b0: c86c a33d c575 25be 3e3c 79bd 72fc 1ebe
000000c0: 4d47 b7bd 052a 523d dd4e d1bc 7b71 bcbd
000000d0: 4d04 2ebe 4041 8dbd d77d 4f3d e3c0 8dbd
000000e0: 0c72 efbd 50f8 6b3c 9976 ddbd 4a49 7fbe
000000f0: d2f7 dabd 371a b9bd ecab 95bd 8035 c63d
00000100: e09c a3bd bb1a 27bd 2efd aebd 1d29 d7bd
00000110: 5401 e5bd b254 01be 2ad7 4e3d 3826 26be
00000120: cf1e e4bd 57b2 99bd 97dc b23b f15c 25bd
00000130: 6823 b6bd e8eb 88bd ab2f b4bd 3f34 96bd
00000140: e7e1 67be 0230 bdbd 5c13 8dbc 3c2b e13c
00000150: 429b a6bd 85d1 86bd 504a a2bd 9286 d5bd
00000160: 225c ccbc 664d 8dbd 7521 ddbc 17e9 18bc
00000170: ba77 97be fc1e e4bd b21e 3d3d 5173 46be
00000180: f654 0ebe e215 88bd 29d4 51be 5cd2 0ebe
00000190: 1e31 88bd 3694 8abb 046c a1bd 8046 88bd
000001a0: a748 2cbd 8dd8 95bc ac66 c0bc 1df9 e9bd
000001b0: ecf8 65be c34c 4cbd c5fc 12be 0a11 51bc
000001c0: a729 3f3c 1db2 fcbd 6c4a 5ebd 5c52 b63b
000001d0: b2bc a3bd 2be0 41be 9135 37bc 582a 46bc
000001e0: b0c7 c6bc 6212 853d 03ea adbd 9cec 203d
000001f0: c449 23be e47d 26be 0bcb adbc 8ce7 19be
00000200: 294c aebd 2223 17be 924a 1ebe c76c 1fbd
00000210: 4eae 97bd db59 19bd 7642 c5bd 5467 7bbd
00000220: b6fb 1ebe de97 41be 2a55 99bd 0944 cbbd
00000230: 1c1e 1dbe 313e 49be 1a4c cdbd 592f 5a3d
00000240: fe3d 153d 9395 8fbd 1ed3 b5bd 3382 22be
00000250: 3c1e bdbd 1a05 8ebd f41f 27bd 7fd1 28be
00000260: f3b8 5c3d fa8c 40bd 8acc 3cbe 094a d5bd
00000270: c992 83bd 10d2 003e 50b5 cc3c b5c4 5abd
00000280: bc8f 32be 3aff 5d3d 6fac 09be 576d 79bd
00000290: d7ba d4bd adc0 bfbd c644 d8bd 35b8 30bc
000002a0: 8aec a0bd 6ac2 1a3d 5645 75bd f2ed a23d
000002b0: 207a 76bd c931 e2bd e9db 9cbd f267 de3c
000002c0: e7fd 3fbe 204b 8fbd 4021 3ebe b429 47bd
000002d0: bf1f f5bd 21dc 38be a62d 33bd 0994 dcbd
000002e0: 7fa3 f6bd 219e fd3d ca51 e5bd 2a48 90bc
000002f0: 0d37 36bd bcdc a83c b85b 543d fc7a 20be
00000300: d976 d1bc 3e76 aebd 084f 29be 0e85 acbd
00000310: 8eec f13c e898 12bc c815 9cbd a36e f5bb
00000320: 3568 c13b d0cd 163c bf70 b73d d452 4bbe
00000330: ce09 86bd 7a8e 21bd 0264 0d3e 2ee0 7cbd
00000340: 1e37 46bd e2a1 493d e43e 2cba 3935 a5bd
00000350: 1794 cfbd e44f 95bd d349 aabd 2085 c3bd
00000360: 3687 b3bd 813e a13d 1428 0dbe 4cbf a73d
00000370: 9f0d aabd 5cce 8ebd a403 0bbe 137e 26be
00000380: cd33 0fbe 29b0 5bbe 4dc5 d4bd e3b5 88bb
00000390: cbd2 eebc be87 75bd ee1f c2bb 850d 9abc
000003a0: 36df 22be ae04 3dbe 727a 693d 97dc 19be
000003b0: 10de e0bd 315c 003e 78a7 f9bd 4636 eabd
000003c0: d8a9 e4bd b42e 9fbd a504 0abe b82e 89bd
000003d0: 71de 18bd e405 0fbd 5abf 2e3c 02e2 09be
000003e0: 737d 6cbe 5cf9 003d 15a5 b1bd cd4b 3ebe
000003f0: c30e f9bd 5f60 58bd 9ea6 c2bd 5d0a d0bd

network_body._body_endoder.seq_layers.4.weight f4 [256, 256]
0.18597278 0.07934181 -0.09458043 -0.14449805 -0.04206909 -0.1306392 0.01933349 -0.017757626
0.13003372 0.061071955 -0.075268485 0.07993811 -0.051144503 -0.06654117 0.040672094 -0.05822258
-0.10452238 0.07259791 -0.052437313 0.058039166 0.07155496 -0.035976913 -0.046646267 -0.18162136
0.007879936 0.15304059 -0.0005249071 0.1060597 0.06401415 0.017127097 -0.024577167 -0.1556689
0.17972074 -0.09278177 0.017599985 -0.1168659 -0.0049169804 0.15749447 0.018549833 -0.04600601
-0.13843939 -0.047567204 0.10409374 0.075481616 -0.064445436 -0.21026772 -0.05266955 -0.011003302
-0.11561601 -0.10657357 0.057821464 -0.03469513 -0.07779922 0.19155869 0.13776694 -0.087014735
-0.019218223 -0.14448859 -0.20790353 -0.058167458 -0.06649315 -0.0480303 -0.18978128 0.06669108
0.07654051 0.12314214 0.05085785 0.03309139 0.045556437 -0.09390817 -0.022888795 -0.048657455
-0.11984212 -0.031570666 0.049603004 -0.048404608 -0.15777032 0.124324486 0.14173564 0.015758976
0.09986683 -0.07058239 -0.12954335 0.044756953 0.15025042 0.064131856 0.067511685 0.034203812
-0.10786544 -0.025961343 -0.12219931 -0.14597401 0.1670187 0.09505593 -0.10878887 0.13988118
-0.086894 0.13272552 0.07073174 -0.03944068 -0.12852307 -0.09186816 0.08095693 0.044875376
0.25583112 0.16447218 -0.045699727 -0.006728936 0.0763716 -0.0024804848 -0.10801399 -0.055788122
-0.088993646 0.22322798 0.0618735 -0.12715344 -0.10391233 -0.0862107 0.15008241 0.18792461
0.05104484 0.036683153 -0.074539565 -0.12628227 -0.11507726 0.117122486 0.060578268 0.06822563
-0.19931927 -0.16340724 0.10889087 -0.008462943 -0.06503407 0.060975302 0.116296075 0.16669707
-0.052960534 0.0058348463 0.017949415 -0.0886432 -0.02541952 0.075812355 -0.08643313 -0.014212046
-0.118605934 -0.085808985 0.23703139 -0.011107369 -0.064023726 -0.009960755 0.30692875 0.026123373
-0.0133469375 0.059902035 0.010513574 -0.06965549 0.18015249 -0.02253806 0.11053829 0.015967375
0.1227712 -0.03544244 0.06287243 0.020443125 -0.017946778 -0.14115776 -0.2822746 -0.01174264
-0.25550732 0.06355334 -0.13980444 -0.17085199 -0.0071957773 -0.07957548 -0.08017457 -0.45673707
-0.049256973 -0.09817064 0.19125792 -0.10063986 -0.054014828 0.06689265 -0.11149551 -0.08569955
-0.0895767 0.017269656 -0.1220034 -0.25831363 -0.08874597 -0.06496393 -0.09959437 0.071443275
-0.14759411 0.11572453 0.072052605 0.099317595 -0.028033579 0.19847278 -0.061410666 0.0091534415
-0.0751405 0.12458723 -0.008326767 0.03700058 -0.018873628 -0.15865886 0.019910894 0.075955205
-0.13521764 -0.14896107 0.0252322 -0.11470206 -0.24890263 -0.14371563 -0.037969008 -0.04776857
-0.0725705 0.016160488 0.006693151 0.09322738 -0.114207126 0.059733946 0.20861684 0.047243748
0.08368173 -0.040891998 -0.07853953 -0.106241494 -0.030505886 0.20875733 -0.21207507 -0.05764807
0.12891069 0.0034011982 -0.17378251 0.1034024 0.102632426 -0.25673214 0.0997664 -0.24621147
0.11737015 0.12086121 0.04145453 -0.14128105 0.040866878 0.10234788 -0.050310194 -0.08498942
-0.073006265 0.14010654 0.043079894 0.17257872 0.10111392 0.2279664 -0.07475464 -0.04116978
00000000: a66f 3e3e f57d a23d 62b3 c1bd 4cf7 13be
00000010: a350 2cbd 48c6 05be 4461 9e3c 7178 91bc
00000020: 8f27 053e 9626 7a3d 5d26 9abd 98b6 a33d
00000030: e67c 51bd bd46 88bd c897 263d cd7a 6ebd
00000040: d40f d6bd 37ae 943d 82c8 56bd 7aba 6d3d
00000050: 688b 923d 875c 13bd 2810 3fbd f3fa 39be
00000060: d91a 013c acb6 1c3e eb99 09ba d435 d93d
00000070: da19 833d 204e 8c3c 0e56 c9bc ab67 1fbe
00000080: b708 383e 5e04 bebd d82d 903c 6457 efbd
00000090: 9f1e a1bb 3b46 213e d2f5 973c cc70 3cbd
000000a0: 0ec3 0dbe d4d5 42bd 192f d53d 1b96 9a3d
000000b0: f8fb 83bd 6c50 57be 07bc 57bd 3247 34bc
000000c0: 16c8 ecbd 3e43 dabd 33d6 6c3d 7b1c 0ebd
000000d0: 3355 9fbd f627 443e c712 0d3e c834 b2bd
000000e0: 896f 9dbc d1f4 13be aae4 54be 0041 6ebd
000000f0: 902d 88bd 6bbb 44bd 0656 42be 5595 883d
00000100: 45c1 9c3d f231 fc3d 5250 503d d68a 073d
00000110: 6399 3a3d ed52 c0bd 4881 bbbc 0a4d 47bd
00000120: c96f f5bd 3e50 01bd 852c 4b3d e943 46bd
00000130: 8b8e 21be d69d fe3d 2623 113e f818 813c
00000140: fb86 cc3d 808d 90bd 03a7 04be 1153 373d
00000150: 3fdb 193e 9057 833d 9143 8a3d 4c19 0c3d
00000160: 8ee8 dcbd e2ac d4bc a243 fabd 367a 15be
00000170: f306 2b3e afac c23d b3cc debd 033d 0f3e
00000180: 7bf5 b1bd 33e9 073e cddb 903d 8d8c 21bd
00000190: 8d9b 03be 6025 bcbd bfcc a53d 3ecf 373d
000001a0: 4cfc 823e 656b 283e a32f 3bbd 687e dcbb
000001b0: b768 9c3d a18f 22bb 7036 ddbd 1682 64bd
000001c0: 4d42 b6bd e095 643e 116f 7d3d 8334 02be
000001d0: fdcf d4bd 3c8f b0bd 34af 193e 4f6f 403e
000001e0: 6514 513d 1341 163d 33a8 98bd 2450 01be
000001f0: a0ad ebbd eadd ef3d eb20 783d e1b9 8b3d
00000200: 5a1a 4cbe 3a54 27be 2d02 df3d 28a8 0abc
00000210: 9530 85bd 3dc1 793d a32c ee3d a3b2 2a3e
00000220: 25ed 58bd 3d32 bf3b a70a 933c 918a b5bd
00000230: 993c d0bc 8243 9b3d da03 b1bd a4d9 68bc
00000240: abe7 f2bd 9fbc afbd 5bb8 723e affb 35bc
00000250: df1e 83bd 6f32 23bc c425 9d3e af00 d63c
00000260: 1dad 5abc d65b 753d 2041 2c3c 8aa7 8ebd
00000270: e579 383e bda1 b8bc e661 e23d 03ce 823c
00000280: 786f fb3d 182c 11bd 43c3 803d 5778 a73c
00000290: 1f05 93bc a98b 10be 4c86 90be 3464 40bc
000002a0: dbd1 82be 4128 823d e528 0fbe d3f3 2ebe
000002b0: 8eca ebbb 78f8 a2bd 9132 a4bd 71d9 e9be
000002c0: aec1 49bd b00d c9bd 1ed9 433e 451c cebd
000002d0: a73e 5dbd 04ff 883d c257 e4bd 3f83 afbd
000002e0: fd73 b7bd 1879 8d3c ebdc f9bd af41 84be
000002f0: 72c0 b5bd cf0b 85bd 22f8 cbbd da50 923d
00000300: e922 17be fb00 ed3d 5190 933d 0667 cb3d
00000310: ada6 e5bc 733c 4b3e c089 7bbd 51f8 153c
00000320: 43e3 99bd 9727 ff3d fe6c 08bc ec8d 173d
00000330: de9c 9abc 7877 22be 2c1c a33c 678e 9b3d
00000340: 7e76 0abe 4089 18be c2b3 ce3c eae8 eabd
00000350: 55e0 7ebe 312a 13be 6485 1bbd faa8 43bd
00000360: d89f 94bd 0063 843c 3852 db3b ffed be3d
00000370: 6de5 e9bd 95ab 743d a79f 553e a982 413d
00000380: 5461 ab3d 5e7e 27bd 55d9 a0bd 2495 d9bd
00000390: 7be7 f9bc 7bc4 553e 352a 59be 6220 6cbd
000003a0: 2a01 043e a3e6 5e3b 0bf4 31be a3c4 d33d
000003b0: f330 d23d 6572 83be 5452 cc3d dc1e 7cbe
000003c0: c35f f03d 1586 f73d 3acc 293d fbab 10be
000003d0: 0764 273d c49b d13d 1012 4ebd ef0e aebd
000003e0: 4f84 95bd 1778 0f3e 8b74 303d 7ab8 303e
000003f0: d114 cf3d 0670 693e f618 99bd a5a1 28bd

network_body._body_endoder.seq_layers.4.bias f4 [256]
-0.080462635 -0.085702375 -0.01842295 0.022878364 -0.07258582 -0.10643434 -0.038156055 -0.12182511
-0.04543596 -0.18714274 -0.12148412 -0.108702995 -0.13472717 -0.15599537 -0.0027809057 0.05582694
-0.07720699 -0.056158464 0.05974097 -0.09977644 -0.017972177 -0.13412678 -0.08096577 -0.23440555
-0.037823 -0.19846646 -0.028115887 -0.1577365 -0.031489827 -0.16368645 -0.07154791 -0.05998739
0.029460827 -0.06465325 -0.033439245 -0.10493073 -0.13869736 -0.22890972 -0.0415381 0.122344986
-0.12630956 0.06038889 -0.14814483 -0.03162486 0.015219904 -0.27049586 -0.041880548 -0.024461025
-0.08178727 -0.087802716 0.09293745 -0.09019187 -0.028877359 -0.17564519 0.17567362 -0.17815976
-0.07626238 -0.1136257 -0.041388173 0.021659127 -0.15539046 -0.24321786 -0.01929585 -0.09583448
-0.08744647 0.08527301 -0.05507793 -0.08778037 -0.10898192 -0.06995353 -0.06704981 0.016562156
-0.07533258 0.020350933 0.13309214 -0.06483171 0.050449256 0.0016867294 -0.04627919 -0.069319636
-0.125636 -0.06132619 -0.17360502 -0.053244524 0.011880366 -0.14367801 -0.1475487 -0.05747983
-0.22641312 -0.03932851 -0.20848803 -0.0950306 -0.015139462 -0.21755007 -0.17107506 0.13995402
-0.12156077 -0.056332976 -0.13614587 -0.08962202 -0.14832331 -0.1195892 -0.047176726 -0.1819219
0.016099364 0.09660654 -0.11841324 -0.1434358 0.1241549 -0.08747715 -0.105258994 0.08413425
-0.11010047 -0.20717749 -0.11129091 0.007484111 -0.09342803 -0.16481434 -0.026887488 0.06650253
-0.051051337 -0.0155187575 -0.17531343 -0.18767746 -0.1490745 -0.0013621792 -0.035837896 -0.036612906
-0.18664546 -0.026358524 -0.1101925 -0.09876402 -0.10715474 -0.17261352 -0.09886445 0.079542786
-0.09609104 0.10934673 -0.18437144 -0.03610283 0.09678329 -0.02125329 -0.08724386 0.043403447
0.022917308 -0.07077788 -0.18526368 0.091479175 -0.045849662 -0.019729335 -0.012584418 -0.12556787
-0.15544067 -0.18542433 -0.027714526 -0.0035183968 -0.092820026 0.015923481 -0.10997324 -0.13249245
-0.058790907 -0.08140378 0.06009909 -0.14089257 0.0664298 -0.14279954 -0.10876819 -0.021021416
-0.00226834 -0.1783838 0.011571251 -0.051330637 -0.09444439 -0.15134983 -0.12676364 -0.21857888
-0.16369003 -0.052817814 -0.1580061 -0.20744635 -0.12662141 -0.29647586 0.01900981 -0.11267488
0.06300097 -0.078300685 0.013224485 -0.0067116227 -0.11397473 0.06714006 0.032779284 0.029725445
-0.13476372 -0.06365063 -0.21858056 -0.12587796 -0.091083094 -0.007768072 0.028000396 0.027721645
0.16521432 -0.096882835 0.021893658 -0.089212 -0.024811968 -0.15176396 -0.0775997 -0.09970075
-0.023367478 -0.07007597 -0.13007271 -0.11940787 -0.024507007 -0.13498391 -0.17309423 -0.13529699
-0.07584553 -0.14528513 0.05673154 -0.09746155 0.0028684477 -0.13529369 -0.22131817 -0.008813734
-0.10543617 -0.098433025 -0.14554785 -0.14633347 -0.10693104 -0.059469733 -0.120114736 -0.016865779
0.035397526 -0.15589339 -0.08176973 0.052179944 -0.13179067 -0.13677464 -0.1045248 0.007144814
-0.117030784 -0.067443624 -0.121833965 -0.1175927 -0.1452592 -0.011344389 -0.19598949 0.032097384
-0.00777167 -0.12073102 -0.07262576 0.099928305 -0.08003787 -0.0831217 0.008118532 -0.21521288
00000000: 98c9 a4bd ba84 afbd baeb 96bc 686b bb3c
00000010: e0a7 94bd 3ffa d9bd 8649 1cbd 717f f9bd
00000020: 0f1b 3abd 59a2 3fbe abcc f8bd ad9f debd
00000030: ebf5 09be 40bd 1fbe db3f 36bb caaa 643d
00000040: b31e 9ebd 6b06 66bd f3b2 743d 9757 ccbd
00000050: 633a 93bc 8858 09be 62d1 a5bd 0208 70be
00000060: 4aec 1abd cb3a 4bbe 4a53 e6bc ad85 21be
00000070: 7afb 00bd 6c9d 27be b687 92bd 56b5 75bd
00000080: d557 f13c ec68 84bd 97f7 08bd ece5 d6bd
00000090: ae06 0ebe 4f67 6abe db23 2abd 0290 fa3d
000000a0: 4b57 01be 575a 773d 47b3 17be 1289 01bd
000000b0: e75c 793c 6f7e 8abe f08a 2bbd 7d62 c8bc
000000c0: 1680 a7bd e9d1 b3bd fd55 be3d 84b6 b8bd
000000d0: 3690 ecbc 55dc 33be c9e3 333e 836f 36be
000000e0: 732f 9cbd 97b4 e8bd a586 29bd 7b6e b13c
000000f0: ad1e 1fbe 1a0e 79be 5512 9ebc de44 c4bd
00000100: 2317 b3bd 9ea3 ae3d 6599 61bd 32c6 b3bd
00000110: ea31 dfbd cc43 8fbd 6951 89bd 5cad 873c
00000120: f847 9abd 00b7 a63c 4e49 083e 7dc6 84bd
00000130: e1a3 4e3d 3f15 dd3a 3f8f 3dbd 74f7 8dbd
00000140: b9a6 00be 2c31 7bbd 84c5 31be ee16 5abd
00000150: dea5 423c 5420 13be 0217 17be f86f 6bbd
00000160: d7d8 67be ef16 21bd e37d 55be 679f c2bd
00000170: 820b 78bc 72c5 5ebe 4d2e 2fbe 1b50 0f3e
00000180: daf4 f8bd 68bd 66bd d369 0bbe c08b b7bd
00000190: 11e2 17be 2feb f4bd 623c 41bd bc49 3abe
000001a0: d0e2 833c a6d9 c53d a482 f2bd d6e0 12be
000001b0: ed44 fe3d 3827 b3bd 0792 d7bd 944e ac3d
000001c0: 5b7c e1bd 5626 54be 7dec e3bd 463d f53b
000001d0: 3257 bfbd 17c5 28be 2643 dcbc 7a32 883d
000001e0: 351b 51bd 6342 7ebc 5d85 33be 852e 40be
000001f0: fca6 18be 268b b2ba c2ca 12bd 6af7 15bd
00000200: fd1f 3fbe d5ed d7bc 9bac e1bd ca44 cabd
00000210: f273 dbbd 99c1 30be 7279 cabd 54e7 a23d
00000220: 61cb c4bd 2ef1 df3d decb 3cbe 90e0 13bd
00000230: 5136 c63d 611b aebc e9ac b2bd d0c7 313d
00000240: 14bd bb3c fef3 90bd c3b5 3dbe 6f59 bb3d
00000250: dbcc 3bbd 6a9f a1bc e02e 4ebc dd94 00be
00000260: d72b 1fbe e0df 3dbe 9309 e3bc e794 66bb
00000270: 6d18 bebd f671 823c a639 e1bd 1aac 07be
00000280: bcce 70bd 06b7 a6bd 772a 763d 2446 10be
00000290: 590c 883d 0b3a 12be dbc1 debd 1b35 acbc
000002a0: 6ea8 14bb 3eaa 36be 5895 3d3c 1340 52bd
000002b0: 0f6c c1bd 73fb 1abe 54ce 01be 24d3 5fbe
000002c0: 5c9e 27be 7e57 58bd 5acc 21be d16c 54be
000002d0: 0ba9 01be afcb 97be 76ba 9b3c 16c2 e6bd
000002e0: a706 813d 1c5c a0bd 83ab 583c 2ced dbbb
000002f0: 956b e9bd ba80 893d 9243 063d c782 f33c
00000300: 80ff 09be 435b 82bd 95d3 5fbe 27e6 00be
00000310: c689 babd 508b febb 1661 e53c 8118 e33c
00000320: f12d 293e 826a c6bd 545a b33c c8b4 b6bd
00000330: 7842 cbbc 0368 1bbe 97ec 9ebd e82f ccbd
00000340: 276d bfbc fd83 8fbd c831 05be 1d8c f4bd
00000350: ebc2 c8bc 3939 0abe 9d3f 31be 4b8b 0abe
00000360: e754 9bbd a0c5 14be 555f 683d ec99 c7bd
00000370: 91fc 3b3b 6e8a 0abe 3ba1 62be 7b67 10bc
00000380: ebee d7bd 4197 c9bd 7f0a 15be 71d8 15be
00000390: a9fe dabd 8996 73bd b7fe f5bd 1a2a 8abc
000003a0: fffc 103d 84a2 1fbe e376 a7bd a3ba 553d
000003b0: 22f4 06be a70e 0cbe 1911 d6bd 0b1f ea3b
000003c0: d6ad efbd e21f 8abd 1684 f9bd 71d4 f0bd
000003d0: d4be 14be d1dd 39bc 78b1 48be 8c78 033d
000003e0: 7ea9 febb d341 f7bd d1bc 94bd 36a7 cc3d
000003f0: e5ea a3bd b63b aabd 9703 053c c460 5cbe

network_body._body_endoder.seq_layers.6.weight f4 [256, 256]
-0.08978107 -0.042876802 -0.035917167 0.2737028 0.03744635 0.12479695 -0.055079997 0.21174651
-0.18597242 -0.08755961 0.15934883 0.040403444 0.03502239 0.08376823 -0.02480172 -0.13690539
0.0170402 0.1601212 -0.020154746 -0.15748395 -0.10432712 -0.13629973 -0.07711634 0.0877273
-0.023480728 0.016901873 -0.17395435 -0.05201794 -0.047829926 -0.007756509 -0.093101144 -0.09618694
-0.21196128 0.007551433 -0.06303527 0.03627532 -0.026118314 -0.140573 0.07507316 0.011180153
-0.14421606 0.018037256 -0.013587814 -0.19953972 -0.04103382 -0.012359033 0.09826929 0.11274293
-0.04503998 0.19812529 0.03619797 -0.15779078 0.1498132 0.004952493 -0.1043996 0.10075531
-0.3140164 0.05326763 0.18901451 0.016147766 -0.01646844 0.061927762 -0.17133765 0.04088353
0.05884545 -0.03838196 -0.26542976 -0.11652365 0.03535443 0.08758489 -0.09275206 -0.015148502
0.048346683 -0.117762 -0.03436563 -0.00836692 -0.050985552 0.029527303 -0.12876941 0.01443196
0.077458166 0.061623268 0.0496254 0.06571177 -0.31007844 -0.04138795 0.20843773 -0.11008633
-0.0040298607 0.04208732 -0.008405423 -0.063459314 0.08517828 0.14612414 -0.15195298 -0.19560067
-0.025691703 0.0206596 0.3498355 0.00022263273 -0.022026636 0.15074503 0.2621589 -0.19305141
-0.124968044 -0.22917627 -0.04357067 0.21571882 0.01762503 0.02366989 0.23339024 0.15400366
-0.0582604 0.047345202 0.24726674 0.05434312 -0.07254778 -0.028184589 -0.072237246 -0.01467901
-0.0326428 -0.14613163 -0.36362576 -0.034380585 -0.04660834 0.0066943904 -0.023899242 0.0031251614
0.07061938 -0.15013593 -0.2839604 -0.2872549 -0.06772259 -0.109564446 -0.1294335 0.13940735
-0.030677428 -0.038146324 -0.037887994 -0.101229675 0.060427036 -0.031743057 -0.18004915 -0.05235408
0.1187387 -0.10323362 -0.0312554 -0.045843963 -0.015494407 -0.19843535 0.2532053 -0.14921719
0.011672356 0.0961165 0.016187396 -0.10648982 -0.07614005 0.061538275 -0.06902267 -0.06998669
0.03713652 -0.103070356 0.11200313 0.09243983 -0.071082935 -0.1326195 -2.751278e-06 0.0019338558
-0.2979912 0.035897233 -0.03950968 -0.0755162 -0.157384 -0.05276814 -0.009368943 0.022100441
-0.045125272 -0.012314447 0.07999782 -0.067236334 -0.039833564 -0.0592515 0.09441047 0.12515818
-0.002885666 0.026038662 -0.02540799 -0.014091219 -0.067130655 -0.0015478735 -0.1362436 -0.070081376
-0.06462154 0.08866534 -0.05050868 -0.15024638 0.1363819 -0.08087171 -0.15659681 -0.30052784
0.04615361 -0.015091304 -0.02886006 -0.018401287 -0.17335674 -0.0071177376 0.18220681 -0.0014071565
-0.00979017 -0.19534631 0.072302476 0.14699355 0.15900044 0.0756337 -0.060102012 -0.10746028
-0.029335456 0.0052309423 0.07686288 0.005715696 0.041483317 0.21956168 0.25926605 -0.14712083
0.075245716 -0.13800828 0.109042384 0.15881248 0.20042081 0.08146797 -0.05868295 0.046260513
0.051400904 0.100113675 0.047818445 -0.1531321 -0.0025117006 0.054825034 0.08000358 -0.26119387
0.051383793 -0.027591506 0.01274902 0.018630145 -0.23437062 -0.31123593 -0.11091178 -0.15900807
0.16275063 0.048772544 0.0049507963 -0.048258673 0.011301436 -0.017674662 -0.090106174 0.18420538
00000000: 23df b7bd 969f 2fbd e11d 13bd c622 8c3e
00000010: 5861 193d 8b95 ff3d 909b 61bd 14d4 583e
00000020: 8e6f 3ebe 7452 b3bd 572c 233e 157e 253d
00000030: a373 0f3d ae8e ab3d fa2c cbbc ed30 0cbe
00000040: e497 8b3c d0f6 233e 911b a5bc 7943 21be
00000050: 75a9 d5bd 2892 0bbe 2cef 9dbd 5faa b33d
00000060: a85a c0bc cc75 8a3c 1721 32be c310 55bd
00000070: 50e9 43bd 502a febb d0ab bebd a9fd c4bd
00000080: 610c 59be 0372 f73b a318 81bd 6e95 143d
00000090: 13f6 d5bc 5ef2 0fbe f5bf 993d f62c 373c
000000a0: 60ad 13be dec2 933c 6c9f 5ebc 2454 4cbe
000000b0: 1413 28bd 8b7d 4abc 6941 c93d c4e5 e63d
000000c0: d87b 38bd 5be1 4a3e 5344 143d e893 21be
000000d0: a268 193e 8648 a23b 75cf d5bd cd58 ce3d
000000e0: c2c6 a0be 292f 5a3d 058d 413e 5248 843c
000000f0: d2e8 86bc f7a7 7d3d 2373 2fbe 7d75 273d
00000100: ed07 713d 6736 1dbd 69e6 87be f4a3 eebd
00000110: cfcf 103d b55f b33d cbf4 bdbd 6c31 78bc
00000120: 2c07 463d 342d f1bd fac2 0cbd 6815 09bc
00000130: 3ad6 50bd 3ee3 f13c 21dc 03be 0774 6c3c
00000140: 63a2 9e3d ae68 7c3d 0144 4b3d e493 863d
00000150: 9ac2 9ebe 6986 29bd b370 553e f174 e1bd
00000160: ec0c 84bb c163 2c3d e6b6 09bc f5f6 81bd
00000170: f371 ae3d 91a1 153e 9099 1bbe 8b4b 48be
00000180: 6877 d2bc 523e a93c a31d b33e 8572 6939
00000190: 3471 b4bc e85c 1a3e b139 863e 45af 45be
000001a0: 3fef ffbd 2fad 6abe 2977 32bd 65e5 5c3e
000001b0: 5e62 903c 5be7 c13c dafd 6e3e 23b3 1d3e
000001c0: 75a2 6ebd 0bed 413d 7e33 7d3e e496 5e3d
000001d0: ee93 94bd 5ee3 e6bc 1ff1 93bd 3b80 70bc
000001e0: 75b4 05bd 88a3 15be 282d babe a8d2 0cbd
000001f0: 63e8 3ebd 9e5c db3b 58c8 c3bc 82cf 4c3b
00000200: e5a0 903d 3cbd 19be 4263 91be 1313 93be
00000210: 24b2 8abd 5363 e0bd 378a 04be cdc0 0e3e
00000220: 3b4f fbbc 523f 1cbd 7130 1bbd 8151 cfbd
00000230: 5782 773d 0205 02bd ce5e 38be 3b71 56bd
00000240: 472d f33d 266c d3bd aa05 00bd e1c6 3bbd
00000250: 41dc 7dbc a332 4bbe 20a4 813e 64cc 18be
00000260: 693d 3f3c bad8 c43d 6e9b 843c 5617 dabd
00000270: 51ef 9bbd 8f0f 7c3d c25b 8dbd 2f55 8fbd
00000280: 771c 183d 8d16 d3bd e661 e53d 1851 bd3d
00000290: ee93 91bd 68cd 07be 99a2 38b6 6f79 fd3a
000002a0: 4d92 98be fa08 133d e7d4 21bd 3da8 9abd
000002b0: 4529 21be 6823 58bd 3280 19bc fc0b b53c
000002c0: 47d5 38bd 89c2 49bc e6d5 a33d 34b3 89bd
000002d0: 8528 23bd b3b1 72bd 475a c13d 7729 003e
000002e0: 711d 3dbb 084f d53c 6b24 d0bc dbde 66bc
000002f0: cc7b 89bd 04e2 caba 7183 0bbe d386 8fbd
00000300: 4c58 84bd 2c96 b53d 31e2 4ebd 30da 19be
00000310: b2a7 0b3e 11a0 a5bd ea5a 20be c9de 99be
00000320: 910b 3d3d 8441 77bc ef6b ecbc 4cbe 96bc
00000330: 6e84 31be e93b e9bb 6c94 3a3e 5670 b8ba
00000340: f366 20bc dd08 48be 5213 943d 7a85 163e
00000350: 03d1 223e d7e5 9a3d 872d 76bd 2314 dcbd
00000360: e950 f0bc 5368 ab3b 496a 9d3d bc4a bb3b
00000370: 69ea 293d c7d4 603e 85be 843e d8a6 16be
00000380: 6d1a 9a3d 0b52 0dbe 9d51 df3d bd9f 223e
00000390: 1d3b 4d3e aed8 a63d 885d 70bd aa7b 3d3d
000003a0: c189 523d 6608 cd3d 46dd 433d a9ce 1cbe
000003b0: 589b 24bb 3790 603d ebd8 a33d 34bb 85be
000003c0: d077 523d 9507 e2bc 44e1 503c 3f9e 983c
000003d0: dafe 6fbe 515a 9fbe b725 e3bd 03d3 22be
000003e0: 1aa8 263e b8c5 473d 4a3a a23b e3aa 45bd
000003f0: a929 393c 74ca 90bc 9689 b8bd 56a0 3c3e
